checkpoint_critic2.pth (torch, 161945 bytes, 5 tensors)

fcs1.weight f4 [256, 24]
00000000: 1f6c 0dbe 3757 e93d a588 093c f871 34b9
00000010: 7737 a1bd d914 38be 6094 18bd 02b4 c9ba
00000020: 91fc 28be f240 843d 6692 15bd 3b7e 30be
00000030: cbfc 933d 0bb0 36bf 8e1a 5b3c 3c5a ffbd
00000040: 8896 26be d92d 223e b731 2dbd b8f4 8e3d
00000050: 58bb e9bd 6995 f9be 3303 bb3b 7d7d de3c
00000060: 311c 37bd 3dbe 3c3e 4bbc 833c a1a6 1bbd
00000070: a7f7 dcbe fcdb 49bd e932 123c 5ee5 cbbd
00000080: 5d18 0fbc d3b8 cf3e 49de 0b3c ea09 38bd
00000090: a345 9abd aee1 223d 8e61 3bbd 8333 4bbd
000000a0: 49b9 c2bc afed 253e bec2 183d 36a5 ef3c
000000b0: 7917 b33e ff4a 14be e94f cbbc d9f4 cdbc
000000c0: 557e 06bc 3be0 b73d b6cf 423d e45b ffbd
000000d0: 83ee 643e 193a 813c b9e9 0cbd fd76 68be
000000e0: 6f6d 85bd 8a5c 413b 2347 36bd 3306 88bd
000000f0: 219e 893e 93c1 9c3d 6c69 093d a7bd b5bd
00000100: c38c 1ebe b5ee d4bc efb4 4f3d 33fa 3f3d
00000110: 8a7d 7a3e 410a b13e 883a 3ebc 823d 493b
00000120: fc86 e13d 07d7 eabd a7ec c3bc 2d93 8fbe
00000130: 372d 85bd ae76 36be ef04 0cbd d2cb 57be
00000140: 04ce ef3c 3c6d eebd 85ca bcbd 6131 9b3d
00000150: 1e83 97bd 915a 51be 991c fbbd cf88 e73c
00000160: b080 b23d de3a 50be 66a3 dcbd 5bc1 3a3e
00000170: c8c2 4b3d 6baf cd3d 5569 dbbc 6ed9 1c3e
00000180: 5d06 1f3d dd3b f13d 9151 04bd da53 c43c
00000190: 2e1b 04be cf4f 533c bd0a 4a3c da12 103d
000001a0: c5e7 013e 2f09 953e f5d4 663c a7b4 44be
000001b0: 4ca5 70bc 76c6 6f3e e5be 90bc 9ae0 35be
000001c0: 2ce8 1b3e c52f da3e 023f 80bd bee8 57bd
000001d0: 66b0 df3e 632f 073f 57e0 b63b 8c89 76bd
000001e0: 8104 3a3e d273 50be 03ae ebbb 55e2 36be
000001f0: 2832 ddbe 7b8a e1be 4fea 6dbd f218 f5bd
00000200: e22c 7dbc 383d 04bf 7d09 213c 0127 8e3d
00000210: 62f1 253b e73f 5c3e 9bc9 e3ba 71d0 283d
00000220: 8186 3a3d f57d 46bf f8a1 2bbd 2dbe 57bd
00000230: d48d 063e 668f e13e 525a abbc 34bd babc
00000240: 80eb 653e 9182 ab3e bdc9 a73d e33d efbd
00000250: afa9 a53e 251c 02be e361 963c 6c1b 55be
00000260: ae3b 143e 6047 653c dba2 653d 2905 f6bd
00000270: 5410 843e d2ae 19be 29aa e13b 852d 2cbe
00000280: 0994 1f3e fd10 83bd dacc 0cbd 1f7b a1bd
00000290: 6188 5e3e c63c 1ebf 270c 3cbd a6e6 c2bd
000002a0: bff3 b13e 41cb cf3d 6716 203d 4063 abbd
000002b0: c731 0fbe f5f6 2fbd d6be 89bb ae59 ffbb
000002c0: 190c 393e 7b2e 42be e2c4 3139 f373 abbd
000002d0: d127 aabe 1e03 8b3d a645 6c3a 5a0c c0bd
000002e0: 788f 543e 75f9 18bf 1345 9f3d 6c40 a7be
000002f0: dae3 23be e954 933d d5e6 833c 5000 c7be
00000300: d57c 87bb 71dd 6abe a852 85bd 57d9 e93c
00000310: 41ae b3be 8797 7c3e c0ec 21bc cc36 873d
00000320: cee3 4b37 948c 5abe 2f19 9b3c 70ab a0bd
00000330: 3973 65bd 5ee0 373d a5e4 bbbc c2ff 88bd
00000340: e825 05be 1303 5cbe 592c 9b3b 8909 c5bd
00000350: 49d1 a03e c537 8ebe a61b b3bc 2589 34bd
00000360: 085b e4bd 538b ef3e a65f d83c e882 f6bd
00000370: 5fcd 1e3e abe0 53be 18f7 26bd 09f1 c5bd
00000380: 8254 acbd 6ef7 003f 32d9 31bc 355f 733d
00000390: 844b a03d fde3 b7bd c3a8 39bb 7358 093c
000003a0: 4774 c73b 87c1 153f 3c51 2ebd 4824 d7bd
000003b0: 116e 1f3c 608f a7bd 7c1a 9b3c 936b a0bd
000003c0: 57b4 91bb c739 d53e 60ac 163d 4fbc 6abd
000003d0: 045e 863e 2ada a83d 6357 eebc 625d ddbc
000003e0: bbb4 193c 7bfd 543e f06a bb3c 342b 40be
000003f0: 7caa 123e cabd 2dbc 5dea f3bc 2fe4 70be
-0.13810776 0.11393588 0.008394395 -0.00017208594 -0.07871907 -0.17976703 -0.037250876 -0.001538873
-0.16502596 0.064577 -0.03651657 -0.17235653 0.07225951 -0.7136237 0.01337303 -0.12468383
-0.1626836 0.15837802 -0.04228374 0.0698027 -0.11412686 -0.48746803 0.0057071685 0.027159447
-0.04470462 0.18431945 0.016080996 -0.038000707 -0.43157694 -0.04928206 0.008923271 -0.09955858
-0.008733836 0.40570697 0.008536884 -0.04493133 -0.075328134 0.039766006 -0.045747332 -0.049609672
-0.023769991 0.1620395 0.037295096 0.029253583 0.34978846 -0.14481734 -0.024818378 -0.025141167
-0.008208831 0.089783154 0.04756137 -0.124686986 0.2235661 0.015774773 -0.034402583 -0.2270164
-0.065150134 0.002950462 -0.044501435 -0.066418074 0.26878455 0.07654109 0.033547804 -0.08874064
-0.15483384 -0.02599273 0.05070966 0.046869468 0.24461952 0.34578136 -0.011610635 0.0030706828
0.11012074 -0.114667945 -0.023916556 -0.28041974 -0.06502765 -0.1781871 -0.034184393 -0.21073845
0.02927304 -0.116419286 -0.09218315 0.07577778 -0.073980555 -0.20444705 -0.12261314 0.028263478
0.087159514 -0.20334956 -0.10773353 0.18237822 0.049746305 0.10043224 -0.026783625 0.15317318
0.038824428 0.11778996 -0.03230435 0.023965765 -0.12900993 0.012897446 0.012331662 0.03517423
0.1268607 0.2910857 0.014088859 -0.19209538 -0.014687847 0.2341555 -0.01766915 -0.1776146
0.15225285 0.4261457 -0.06262018 -0.052712195 0.4368927 0.5280668 0.0055809426 -0.06018977
0.1816578 -0.20356682 -0.0071923747 -0.17859776 -0.4320233 -0.44050965 -0.058084782 -0.119676486
-0.015452595 -0.5165591 0.009828922 0.06941033 0.0025320877 0.21508752 -0.0017378809 0.04121441
0.04553843 -0.77535945 -0.041902512 -0.0526716 0.1314004 0.44054717 -0.020917092 -0.022795297
0.22453117 0.33498052 0.081927754 -0.11681726 0.3235602 -0.12706049 0.018357223 -0.20811242
0.14475891 0.013994068 0.056063514 -0.12012703 0.25793707 -0.15008095 0.0068867397 -0.1681424
0.15583815 -0.06399725 -0.03437505 -0.078848116 0.21731712 -0.6181148 -0.045910027 -0.09516649
0.34756276 0.101461895 0.039083865 -0.0836854 -0.13983832 -0.042960126 -0.0042036576 -0.007792673
0.18071021 -0.18963043 0.0001695338 -0.08371725 -0.33233503 0.06787704 0.0009013064 -0.09377356
0.20757854 -0.5975564 0.07776847 -0.32666337 -0.16004887 0.0719393 0.01610128 -0.38867426
-0.004134754 -0.22936036 -0.06509906 0.028546019 -0.35093883 0.24667178 -0.009883106 0.066022485
1.2152783e-05 -0.21342689 0.018932907 -0.07845199 -0.056018088 0.044891708 -0.022936175 -0.06689407
-0.13002741 -0.21485548 0.0047355113 -0.09620959 0.31409672 -0.27776924 -0.02186377 -0.044076104
-0.11150175 0.46785983 0.026412796 -0.12036687 0.1550803 -0.20691173 -0.04076299 -0.096651144
-0.08414556 0.5037755 -0.010855006 0.05941697 0.078269035 -0.08979032 -0.002832935 0.008382904
0.0060868594 0.58498424 -0.04255794 -0.10504967 0.009730832 -0.081816435 0.018933527 -0.07833018
-0.004446547 0.41645643 0.036785483 -0.05730849 0.26243603 0.082447365 -0.029094404 -0.027022067
0.009381468 0.2079982 0.02287814 -0.1876648 0.14322847 -0.010604331 -0.029774839 -0.23524545

fcs1.bias f4 [256]
00000000: 0849 0abe 4f7d 0f3e f6d5 da3e c4f7 cfbe
00000010: 9e09 b4bd 556c 6cbe 3ee4 debe 32ed 8fbd
00000020: 0ae4 913e d46d 7bbe 75db a5bd 4679 39bd
00000030: a305 d03d 8b8e 89be 83d5 233e e7bf 87bb
00000040: 6832 11bd 37d0 573e 2f37 f2be 4f2d 8fbe
00000050: 35a4 9e3e 7a21 7fbe 7f5c 363e e1a6 003e
00000060: 2c7d dfbe 5217 293e a92b 8cbd c739 0abf
00000070: a0c2 363d 1272 b03e e36b 803d 5dcd 0d3f
00000080: 8e22 cd3e ddd3 79bc d3b9 183c 269d 75be
00000090: 194f b43d d518 7ebe aaad 353e c561 37be
000000a0: 12db 763e 42f6 87be 2ee9 8f3e 12ca 59bc
000000b0: caa0 23be 5c1c 88bc 6118 653b 3e0c 8fbe
000000c0: 35b5 80be 1547 ea3d 5c92 203e cb4b edbd
000000d0: be91 4bbe d5fc 543e 5339 1fbd 3817 a8be
000000e0: 32aa 04bd d2b6 fabe 70ed 03be ec08 1f3f
000000f0: 3103 83be 62d3 41be 2122 34be af47 e33d
00000100: cc3c cf3e df3e 723e a34d 493e 6536 a93e
00000110: 7a13 0ebe 08fd 883e e7b3 0cbf 4dbd 6f3e
00000120: 6a4f dc3d a9a2 943e e891 4fbe 8db2 7e3d
00000130: e897 08bf 82a8 0b3c a73c 77be 4fd6 d03e
00000140: f4c3 fbbd 92cc 303d 81a1 a1be 9d61 54be
00000150: 62f7 8bbe b849 4cbe a5a0 883a 92de 9ebe
00000160: 2bfa 7fbe 6ad4 8f3c 5e6f 2bbe 5b98 15be
00000170: 528a 323e 4f1e 1c3e 0c56 1f3c 004d c53e
00000180: c00f 053d fbcb 82be e240 8abe 2080 cdbd
00000190: c931 18bd 7ff8 833e ef8e 42be b6e4 b83e
000001a0: 593c 9cbe df53 753e 6e37 873e 4c6f 6d3e
000001b0: 59d3 3bbe 9a3b 4fbe f84c 32bf cb45 2f3e
000001c0: 11ca bdbe 904a afbd 44aa b3be fa2f b23e
000001d0: d247 efbe 11a9 ef3e 18bf aabe 1d28 60be
000001e0: 733e d3be 1456 47be 2d8e 083e 2bc5 813d
000001f0: 3fb8 b63c 29b5 483e cac8 593e 5c46 743e
00000200: fc65 b33e 591c c93e 9fac 1e3f f981 5fbd
00000210: 6b62 fbbe 9af9 e53d 5e3a 33be f131 29bd
00000220: daf7 323d 25a1 15be eb80 d1be 2968 0fbd
00000230: eae0 193d 8469 7abe afdf 833d a00f 803d
00000240: bb92 c93d 381e 803e c160 dd3e 4c17 8f3e
00000250: 58ff b73d 9fb7 193f 5312 0a3f 40b5 cfbd
00000260: f702 86bd a390 34bf 12a3 1f3e 2305 1bbd
00000270: 78e8 bbbd a7e9 70bd a231 7d3c dc60 6cbe
00000280: 9272 d1bc 112d 1f3d efbe 013e 64b7 ea3c
00000290: 0507 833d f7a4 983e dd3f a3be 0e96 333d
000002a0: 10a2 1bbe e86a 163f 8246 e2bd 2433 95bc
000002b0: c9cd 8bbe 3097 debd 71a5 e43e 6794 e43d
000002c0: cfad 37be 5844 e0bd 4930 dd3e 5268 173f
000002d0: f66e 98be b56f e93d 061d 9b3e e25a 2a3e
000002e0: eb27 aabd 0e45 813e 661a 93be 1a27 ab3e
000002f0: d764 263f f32a cb3e f831 b63e 7b41 a73e
00000300: 3c5b 8e3c a346 19bd b3b0 1a3d 90c0 89bc
00000310: be35 4ebe 94f9 793d 6ac9 f63e 4412 bebe
00000320: c797 b73e e879 343e facf e03c f148 b8be
00000330: 10bf abbe ee94 2cbe ae79 70bc 6ec3 dd3c
00000340: 1b85 383e ab1c 863e ea7a 8eba 225a 3d3e
00000350: 49ec 8bbe aec0 2abf dcaf 2ebd c2f9 d0be
00000360: 7c99 b0be 8336 7d3e 0c64 80be cf69 c13e
00000370: 4ebc 033e f3dd 833d 3be9 c2be 8a32 bb3d
00000380: 75ce 8b3d 7d68 e7bd 3a16 77bd dfcc 9dbe
00000390: 39af 38be 00fd cabd b5f9 4abe 3707 b4be
000003a0: 0d24 c4bd 9af1 813e 3037 a6bd 90bb f5bb
000003b0: 2b8e 913e 7009 08bf a83a 5d3e 7fe8 003f
000003c0: b5b1 8ebd 2a7b ebbe 8191 a63e 62fd 2dbe
000003d0: ebbd d43d 2122 3d3e 6948 e33e 81e6 df3e
000003e0: ad90 bd3d f0c7 893d 0a9a 373d eb33 24bb
000003f0: 93ca 88bd d48d 573e d709 053e 9b3a f73e
-0.13504422 0.14012645 0.42741364 -0.40618718 -0.08790897 -0.230882 -0.4353351 -0.07027663
0.28494292 -0.24553615 -0.08098499 -0.04528167 0.10157325 -0.26866564 0.15999417 -0.0041427496
-0.03544846 0.21075521 -0.47307727 -0.27964255 0.30984655 -0.24915114 0.17808722 0.12563659
-0.43650186 0.16512802 -0.06844265 -0.5399441 0.044619203 0.3446203 0.06270578 0.55391484
0.40065426 -0.015248266 0.009321648 -0.23985729 0.08804149 -0.2481416 0.17742029 -0.1790839
0.24107006 -0.26555067 0.2810759 -0.013292806 -0.15979305 -0.016615085 0.0034957158 -0.27939028
-0.2513825 0.11439339 0.15680832 -0.11586722 -0.19879815 0.20799573 -0.038873028 -0.32830215
-0.032388873 -0.48967606 -0.12883544 0.6212299 -0.25588372 -0.18928292 -0.17591144 0.11097657
0.40476072 0.23656796 0.19658522 0.33049312 -0.13874617 0.26755548 -0.5496201 0.23412056
0.107573345 0.2903035 -0.20270503 0.062181998 -0.5335679 0.008524062 -0.24144231 0.40788504
-0.122932345 0.043163843 -0.3156853 -0.20740362 -0.27337176 -0.19949996 0.0010423852 -0.31029183
-0.24997775 0.017557342 -0.16741702 -0.146089 0.17435578 0.15245937 0.009725105 0.3853531
0.032485723 -0.2554625 -0.27002627 -0.100342035 -0.037156854 0.25775525 -0.18999837 0.36111993
-0.30514792 0.23957776 0.26409477 0.23186988 -0.18342341 -0.2023758 -0.69648695 0.17116468
-0.37068227 -0.085591435 -0.3509084 0.34802228 -0.46734482 0.46808675 -0.33348918 -0.21890302
-0.41258582 -0.1946643 0.13335486 0.06336435 0.022304652 0.19600357 0.21268001 0.23854965
0.35038745 0.3927944 0.6198215 -0.05456731 -0.49098524 0.11229248 -0.17502734 -0.041307393
0.0436934 -0.14612253 -0.4091867 -0.035011444 0.03756801 -0.24454314 0.06439149 0.0625298
0.0984244 0.25023055 0.4323788 0.27947462 0.0898425 0.6004581 0.5393421 -0.101419926
-0.06543534 -0.705332 0.1558955 -0.037846696 -0.09175199 -0.05881658 0.015453728 -0.23083824
-0.025567327 0.038861338 0.12670492 0.0286519 0.06397823 0.29813358 -0.3188466 0.043844275
-0.1519854 0.58756876 -0.110486045 -0.018212862 -0.2730544 -0.108686805 0.44657472 0.11161118
-0.17937396 -0.109505355 0.432009 0.59143555 -0.29772156 0.113982596 0.3029558 0.16636232
-0.08308395 0.25247997 -0.28731078 0.3342827 0.6499762 0.39681205 0.35584998 0.32667145
0.017377488 -0.03742088 0.03776617 -0.016815454 -0.20137689 0.061029032 0.48200542 -0.3712331
0.35857984 0.17624629 0.027442921 -0.3599315 -0.33544207 -0.16853687 -0.014677448 0.027070727
0.18019526 0.26193747 -0.0010870371 0.18491414 -0.2732871 -0.66700256 -0.04264818 -0.4081555
-0.344921 0.24727826 -0.2507633 0.37776038 0.12864801 0.06438818 -0.38068566 0.09140499
0.06826488 -0.112992264 -0.06032393 -0.30820367 -0.18035592 -0.09911537 -0.19821818 -0.35161754
-0.09577189 0.2537964 -0.08115995 -0.007499166 0.28428778 -0.531394 0.21604407 0.5035476
-0.06967489 -0.45992404 0.32532886 -0.16991189 0.103877865 0.1847005 0.44391182 0.43730548
0.0925611 0.06727588 0.044824637 -0.002505536 -0.06679263 0.21050197 0.12992035 0.482869

fc2.weight f4 [128, 258]
00000000: 095d 1abe 5724 3c3e 6ce7 2e3e fc8d ddbd
00000010: 4e2d 43bd cc85 a3bc 63dc 663d 6049 8fbd
00000020: 5f5f 26bd d2a7 a73c d808 4d3d f33a fcbb
00000030: daaf be3d f195 f03c bc24 e0be dfb9 0c3e
00000040: 7354 5c3d fa40 cbbd 7c2c f9be 5968 a1bd
00000050: a2bc ec3d 5d2e 0d3d 4cba 963c 33f4 853e
00000060: 94b2 abbd 18fa 993e 4227 a1bd 11af aabd
00000070: 1481 ecbd 8c65 c2bc 1c9d 1e3e 28ee f8bd
00000080: 0cce 13be 7e83 113c d4ba ee3d 0abb 1c3e
00000090: 132d 1dbc 7ed7 193d eca4 713e 40f8 3c3d
000000a0: 3921 e73c 7a0a abbd f64e 053d 15a9 d4bd
000000b0: 8a23 1f3e 61b0 413c 0b5c bc3c b38a 62bd
000000c0: d2bd 2cbe 57cc b5bd fa52 0f3e b5ee 1dbe
000000d0: 6bfa b43e 6969 01be 046f 213d 5886 ae3d
000000e0: 2093 1e3e 7307 93bc 6a75 cfbe 798a ae3e
000000f0: 9e9e fcbc 9585 803d fb78 87be 05c5 db3d
00000100: 67e9 e83d 4663 9e3e ca4b f23d fcf2 d0be
00000110: 2a42 553e 9a9e bbbd cc8d afbe f3a1 993d
00000120: dd6b e4bd 7687 2e3e cde5 f83d 6cdf 84bd
00000130: 28fa 96bd c205 40bd 6c0b b33d 1526 853d
00000140: 10b8 c43d 3801 6c3e e278 2ebe 9b11 dbbd
00000150: 74c4 af3e f3df 993d 54b1 a3be 8a80 b8be
00000160: 4c77 b4be 82cb 873d 3cf6 97bb 589f fb3d
00000170: fb82 40be 7ac3 89bd b778 1cbe c5e3 2b3e
00000180: f439 a4be b6f5 32bf 792f 16be fae1 4bbd
00000190: 4238 78be 2e7e 7d3d 24aa 8b3d 5d6d e2bd
000001a0: 3856 62bd 279f 5cbd c4ee 093d f477 83bd
000001b0: 9312 723e f7cc 9dbd e5e1 4fbe 64f3 533e
000001c0: da36 2f3e a527 58be 8016 b4be a738 893e
000001d0: aadb f1be 98b8 c13d 97c1 ca3d 9e4d a63d
000001e0: 37bf 3d3d e5ce 95be d212 daba 6b08 4bbb
000001f0: 6866 d2bd 3177 b5bd 1642 c33d 9c25 d1be
00000200: af29 4ebd 9955 99be ef37 cb3d d474 86bd
00000210: 9afc 633d f315 e4bd 7b73 2f3d 2a6a 5d3c
00000220: 0d0a e83d b753 573e 8d1c a13e deed a23d
00000230: 090f 233e b4a9 503e 641a c73d 0f10 89bd
00000240: d0fb 783e 8619 783d 5fcd ca3d 0eab e23c
00000250: c5f6 d53d 8e26 393d 177a ba3d ebb0 ea3d
00000260: 71ad bbbb 543a 673c 61a6 d83c 3418 07bd
00000270: e54b 493e 6b79 9bbb a052 eb3b ee94 43bd
00000280: b112 e8be 63ac 5dbe 9a49 95bf a6de b3bd
00000290: f5f0 ffbc 456d 77bd 6522 99be 60a5 a2be
000002a0: 1843 44bd 6175 163d 4ef3 bdbd 03fe 79b9
000002b0: db7c 06be c5cf 09bd a61c 6d3e 0310 94bd
000002c0: 8c05 debc 8893 87be dc44 7d3e 8267 fdbe
000002d0: ea50 8b3d 3026 9fbe 2458 87be 4127 483e
000002e0: c7fc 01be 4b50 1c3d 7213 8e3c 3b18 84bf
000002f0: 3d05 393e 2e87 f93d 0088 ad3d 5a1d 2b3e
00000300: 7897 0e3d 94ce 1abe 4d4b 103e 6ed5 0d3d
00000310: 1fab b53d 0e43 9a3d c11b 893e b4d0 963e
00000320: 5c39 92bc b923 1bbd 1c3e cbbc a074 52bd
00000330: cb2a 36be 7827 9fbc aaab 1c3d 4a04 e43d
00000340: 42d0 d23d 1955 94be d0b6 5a3e 0bab d6bd
00000350: 84c0 afbd ffc1 54be ea41 9abe 2647 69bd
00000360: e449 8e3d 029d 7c3e 81b5 26be 01ce 2c3e
00000370: c8f0 31bf b8cf 843b 238e 42be a0fe 903d
00000380: b88f 673e 1069 513d 1288 8bbe d181 853d
00000390: 79da 7bbe afd0 943d 4ee8 90bd d083 eaba
000003a0: 1484 8abe c517 b23d 4d4c 1dbd f2b6 79be
000003b0: dc65 4d3d c06a 583c 3148 8dbe f868 7e3e
000003c0: c3f9 69be e778 49be 9961 bd3e 7303 bebe
000003d0: 213b e5be dc1b 5b3e 9879 65bc 1f3f 5f3e
000003e0: 1bf0 173e bf0b e2bd 1e21 2dbe eede cf3d
000003f0: 201e 92bd ab65 89bd 1baa 2c3e 13e9 653d
-0.15074553 0.18373238 0.17080468 -0.10818097 -0.047650628 -0.01996126 0.05636252 -0.06996417
-0.040618297 0.020465765 0.050057262 -0.007697457 0.09310885 0.029368373 -0.43778026 0.13742779
0.053791475 -0.09924503 -0.4866675 -0.07881231 0.11559416 0.034468044 0.01839938 0.26162872
-0.083836704 0.3007362 -0.07868816 -0.083341725 -0.11548057 -0.023730062 0.1548962 -0.121548
-0.1443407 0.008881448 0.116567284 0.15305725 -0.009593266 0.037559025 0.23598069 0.046135187
0.028214084 -0.083516076 0.032546006 -0.10383812 0.15540901 0.011821837 0.022993108 -0.055308055
-0.16869286 -0.08876865 0.13996497 -0.15423091 0.35347304 -0.12637867 0.039412513 0.08521718
0.15485811 -0.017947888 -0.40519267 0.3409002 -0.030837353 0.06275479 -0.26459488 0.10730938
0.11372643 0.30935115 0.11830862 -0.40810382 0.20826021 -0.0916111 -0.3428787 0.075015925
-0.11153386 0.17043862 0.12153206 -0.06487927 -0.07371932 -0.04688049 0.08742413 0.06501404
0.0960542 0.2304734 -0.170383 -0.10696717 0.3432957 0.07513418 -0.31971228 -0.36035568
-0.35247266 0.06630613 -0.0046375077 0.12286252 -0.18799965 -0.06726737 -0.15280424 0.16786106
-0.32075465 -0.69906175 -0.14666547 -0.049776055 -0.2424021 0.061887912 0.06819561 -0.11056016
-0.055258006 -0.053862717 0.03367497 -0.064193636 0.23639898 -0.077051096 -0.20301016 0.20698315
0.17110768 -0.21108873 -0.35173416 0.26801035 -0.47237903 0.094590366 0.099002056 0.08120273
0.046324935 -0.2925941 -0.0016637689 -0.003098036 -0.10273439 -0.088606246 0.09534089 -0.40849006
-0.05033272 -0.29948118 0.09922778 -0.06565252 0.05566082 -0.11136999 0.04283474 0.013514081
0.11330042 0.21028028 0.31467095 0.07955526 0.15923704 0.20377237 0.097218305 -0.06692516
0.24314809 0.060571216 0.09902453 0.027669456 0.10447458 0.045202784 0.09105318 0.11459526
-0.005727463 0.014113028 0.026446523 -0.032982066 0.19657858 -0.0047446988 0.0071814805 -0.047749452
-0.4532676 -0.21647792 -1.1663086 -0.08782701 -0.031242827 -0.060406942 -0.29909053 -0.31766796
-0.047915548 0.036733035 -0.09274922 -0.00023841117 -0.13133566 -0.03364541 0.2315546 -0.072296165
-0.027102254 -0.26479745 0.24733299 -0.49493033 0.068025425 -0.31083822 -0.26434433 0.19546224
-0.12694083 0.03816251 0.017343257 -1.0319895 0.18068404 0.121839866 0.084732056 0.16710415
0.03481242 -0.15117866 0.14091225 0.03462737 0.088705294 0.07532321 0.26778987 0.29456103
-0.017849617 -0.037875865 -0.02480989 -0.051380754 -0.17789762 -0.019428 0.03824965 0.111336306
0.10293628 -0.28971174 0.213588 -0.104818426 -0.08581641 -0.20777129 -0.30128413 -0.056952618
0.06947687 0.24669269 -0.16280176 0.16875459 -0.6950803 0.0040530823 -0.18999533 0.07079816
0.22613418 0.051125586 -0.2725225 0.06518901 -0.2459506 0.07266366 -0.070755586 -0.0017892066
-0.27053893 0.0869594 -0.038402844 -0.24386194 0.05014597 0.013209045 -0.2759414 0.2484473
-0.22849183 -0.19675027 0.36988524 -0.37112007 -0.44771674 0.21397346 -0.014006041 0.21801423
0.14837687 -0.11037397 -0.16907164 0.10149942 -0.07134652 -0.06708845 0.16861765 0.05613048

fc2.bias f4 [128]
00000000: c8ab 473f 9b11 68be 6bc0 293e 722c 8f3e
00000010: b240 90bf 08ca 6b3d 6245 aa3e 581e 033f
00000020: 2a4d d83e a100 88bf 7164 c5be 64a3 06bd
00000030: 1b9b 0c3d 556c 883e 324d 9b3e ba1a 7e3e
00000040: d067 063e af02 273e 762a 8ebe ad4e 473e
00000050: 00e0 84bf a84e c2be 71c1 dbbe 3480 3f3f
00000060: 7d88 08be 94a8 84bf 764b 86bf d187 583e
00000070: ee5d 943e 3b5b ba3e 730e 5dbe e543 d73e
00000080: 2330 9f3e 6aac af3e c133 6e3d 358a 973c
00000090: 1a71 8b3e 7640 993d 9768 aa3e 0f2f 9d3d
000000a0: cc53 063f 6f70 f0bd 064d fc3e 98e5 2c3f
000000b0: aa67 bc3e f7b2 ae3e d136 643e d061 ddbe
000000c0: dcfc bbbe ec43 983e 0679 08be 894d 56be
000000d0: c2d8 893e 59ec 7a3e 58c1 123e 5123 163e
000000e0: 9f9b 313f 2ff7 fa3e 2a59 cc3e 8a48 89bf
000000f0: 8e56 6bbe 68fe 7f3f 8d2f 8c3e f17e db3e
00000100: d191 b73e 5623 fc3d 6ae4 08bd 7126 e7be
00000110: e257 d63e b4a0 353e 5d21 6fbd 23d3 a2be
00000120: df8e 6ebe dd4b a43b 9d84 babe 5086 803e
00000130: 0995 973e 6f40 e4bd 5cfa 2dbf 9b99 d93e
00000140: 3fa8 d63d 8e77 bd3e cac6 44be ef94 87bf
00000150: 8aef 32bf 4428 dcbe 8e69 353e 4a69 7c3e
00000160: 7b14 9c3e 8284 2f3d 70a4 7bbe 41a5 f43d
00000170: 19d2 43bd 8dc5 c53e dcfe bc3e 4653 f03e
00000180: 1329 7cbd c167 083e c3e5 89bf c9c9 fdbe
00000190: a9e4 8dbf b106 893e 4ab2 a5be 740b 703e
000001a0: 32f2 923e 4554 1b3e c95c 8dbf a987 4fbe
000001b0: 9d74 f63e 4234 a5bd 3587 133e 8873 19bf
000001c0: 70a5 13be a2fe afbe c8d1 da3d 53e0 83bd
000001d0: dfc9 9e3e 9061 c2bd 1b96 f5bd 0598 8b3e
000001e0: cad2 66bd 464f bbbe 96e7 c5be 7384 2b3a
000001f0: d00b d2bd ba24 913e 5d63 153f c296 1f3e
0.7799649 -0.22662966 0.16577308 0.27963597 -1.1269743 0.05756572 0.3325606 0.51218176
0.42246372 -1.0625192 -0.38553193 -0.032870665 0.034327608 0.2664515 0.30332333 0.24814883
0.13125539 0.16309617 -0.2776677 0.19463606 -1.0380859 -0.37950635 -0.42921022 0.74805
-0.13333316 -1.0363946 -1.0491779 0.2114556 0.28977913 0.36397728 -0.21587543 0.42043987
0.31091413 0.3431123 0.058154825 0.01849852 0.27234727 0.07482998 0.3328292 0.07674991
0.52471614 -0.11740195 0.49277514 0.6753783 0.3679784 0.34120914 0.22286536 -0.43238688
-0.36716354 0.2973932 -0.13327417 -0.20928015 0.26923186 0.24504222 0.14331567 0.1466191
0.69378084 0.4901671 0.39911777 -1.0725262 -0.22982237 0.9999757 0.27380028 0.42870286
0.35853437 0.12311427 -0.033420958 -0.45146516 0.41863924 0.17737085 -0.058381427 -0.3180171
-0.23296688 0.0050139264 -0.364293 0.25102472 0.29605892 -0.11145102 -0.67960143 0.42500004
0.10481309 0.37005275 -0.19216457 -1.0592326 -0.6989676 -0.4299947 0.17716047 0.2464954
0.30484375 0.04285098 -0.24574447 0.11945582 -0.047807787 0.38627282 0.36913192 0.46938533
-0.06156261 0.13320829 -1.0773243 -0.49568012 -1.1085407 0.26762918 -0.32362586 0.23441869
0.28700405 0.15168865 -1.1043941 -0.20266594 0.48135844 -0.08066608 0.14407046 -0.5994191
-0.14418578 -0.34373957 0.10684544 -0.06439271 0.3101339 -0.09491265 -0.11991521 0.2726442
-0.056353368 -0.36583918 -0.3865325 0.0006542869 -0.10256159 0.28348333 0.5835474 0.15584853

fc3.weight f4 [1, 128]
00000000: 8671 e83e ef16 99bf 7f01 893f cb8c 433f
00000010: e203 b3be 94fc 00c0 eadf 133f 2094 9b3e
00000020: de28 863f 2343 afbe 74f7 fbbf 0e67 bcbf
00000030: 7fd4 94bf 21bc 483f 2157 d03e 710c a43e
00000040: 0bcd 1240 591f 973f b087 30bf 9441 193f
00000050: 749c bbbe 0838 8bbf 6abf f5be 8d8c 093f
00000060: 9a14 babf 4dab b2be 02f5 a7be 76f5 4d3f
00000070: 6fb0 653f 5f4a 293f 3d2c 6dbf 655e d73e
00000080: e4a6 8e3f 8a7a ed3e 0c4c 9c3f 31cb 033f
00000090: 46b2 6f3f 142f 7c3f 5204 913e 2182 0ac0
000000a0: 5d0e e23e 3a45 cebf 7f29 e53e c859 013f
000000b0: 2c89 2b3f d449 093f 8f85 883f 4d3f d1bf
000000c0: a47d bbbf 81af 1b3f 05f5 17c0 d685 27bf
000000d0: 8833 5f3f 0b77 b33f 3fe6 d63e 8351 863f
000000e0: dc52 b13e 87f6 b33e 4e88 d03e dac8 cfbe
000000f0: b99a a4bf 64a5 c53e da72 e83e c6ec 1a3f
00000100: 0306 053f eefe 293f d9b2 e0bf 2445 b2bf
00000110: d477 b03e 057b 703f e652 0dc0 382f 50bf
00000120: daf3 1fbf ed4b c5bf b6d7 6bbf d701 523f
00000130: 51a5 263f f3dc d7bf 185a 4abf 1716 7a3f
00000140: 8743 573f 2107 3b3f 5a4a 08c0 f745 b8be
00000150: 966f c6be c83c 98bf f517 273f fbd0 663f
00000160: ed17 da3e 0bb2 b33f 1a26 27bf 60b0 053f
00000170: 8aa3 92bf 0aa7 f53e c966 fa3e 89f2 de3e
00000180: 0147 09c0 c48e 823f e1ac b2be e85e 58bf
00000190: 02c7 ccbe d5ed 643f 1aac d3be 391f 1d3f
000001a0: fcd8 1a3f 8857 5f3f 817d b3be 535a 65bf
000001b0: 4e81 123f 3788 d7bf 3661 5e3f b380 9cbf
000001c0: d261 b2bf dfae 98bf f5fb b33f 89c0 87bf
000001d0: 7da0 723f 26c0 6abf 39ac bbbf f161 163f
000001e0: 7e73 5ebf 930d 29c0 ff14 89bf 9903 3a3f
000001f0: f1ca a7bf 3f69 e53e 5c08 033f d798 b43f
0.45399112 -1.1960124 1.0703582 0.7638671 -0.349639 -2.0154161 0.5776354 0.30386448
1.0481222 -0.3423091 -1.9684892 -1.471895 -1.1627349 0.7841206 0.40691474 0.32040742
2.2937648 1.1806442 -0.6895704 0.5986569 -0.36642802 -1.0876474 -0.479976 0.5373009
-1.4537537 -0.34896317 -0.32804114 0.8045267 0.8972234 0.66129106 -0.9264563 0.42064205
1.1144681 0.46382552 1.2210708 0.5148192 0.936314 0.98509336 0.2832361 -2.1641924
0.44151583 -1.6114876 0.44758222 0.5052762 0.6700618 0.5362828 1.0665759 -1.6347443
-1.4647717 0.6081467 -2.3743298 -0.6543859 0.87188005 1.4020704 0.4197254 1.0493625
0.3463353 0.35149023 0.40728992 -0.40582925 -1.2859718 0.38602746 0.45400125 0.6051754
0.519623 0.66404617 -1.755458 -1.392735 0.34466422 0.9393771 -2.2081847 -0.8132205
-0.6248146 -1.5413796 -0.92126024 0.8203406 0.65096 -1.6864303 -0.7904372 0.97689956
0.84087414 0.7305775 -2.129538 -0.3599088 -0.38757008 -1.1893549 0.6527093 0.9016263
0.4259638 1.4038709 -0.65292513 0.5222225 -1.1456158 0.47979003 0.48906544 0.43544415
-2.1449587 1.0199819 -0.3489752 -0.84519815 -0.3999558 0.894254 -0.4134224 0.61375767
0.6048734 0.8724294 -0.3505669 -0.8959095 0.57228553 -1.6838444 0.8686708 -1.2226776
-1.3936102 -1.1928366 1.4061266 -1.0605632 0.94776136 -0.91699445 -1.4661933 0.58743197
-0.8689498 -2.6414535 -1.0709532 0.7266174 -1.3108808 0.4480686 0.5118463 1.4109143
