checkpoint_critic1.pth (torch, 161945 bytes, 5 tensors)

fcs1.weight f4 [256, 24]
-0.07331802 0.044129655 -0.060953144 -0.05257743 -0.26770857 -0.04906787 -0.106598884 -0.053944338
-0.082183674 0.08967979 0.0027966471 -0.12009467 -0.04062436 -0.0049531856 0.052686073 -0.07242152
-0.12959088 0.050296538 0.02777494 0.08730832 0.04667289 0.2232054 0.07576615 0.044665232
-0.11801383 -0.19014554 0.025095051 0.104452744 -0.15580115 -0.5155744 0.017937584 0.042896923
-0.0873298 -0.21607065 -0.06504386 -0.013205183 0.020143086 -0.64349294 -0.1193267 -0.017883867
-0.064648226 -0.23830356 0.003510036 -0.16854559 0.14467275 -0.48368016 -0.058603838 -0.22294046
0.0919171 -0.009425462 0.010403867 0.1022937 0.09574706 -0.24688913 -0.071560115 -3.6697133e-05
0.03427436 -0.052383542 0.00075514254 -0.11982612 0.06236344 0.04457548 0.07880353 -0.1421491
0.029026456 -0.10394559 0.06267924 0.17540662 0.014013767 0.68398196 0.0003601344 0.13160673
-0.038348556 0.22990975 -0.004841164 -0.080994725 -0.067555614 0.11439777 -0.015108628 -0.011313714
-0.032568965 0.4474567 0.010808609 0.06515972 -0.08381427 0.10925528 -0.019620042 0.017644968
-0.00029111668 0.3876041 -0.015291317 0.3102454 0.31532273 0.1754035 0.065658055 0.2810423
0.22318153 -0.3459843 -0.011715154 0.10821829 -0.09252899 0.11802666 0.0329204 0.11942666
0.1819585 -0.3759789 0.019916581 0.055697516 -0.23254356 0.35444006 -0.011841509 0.07017994
0.19509716 -0.3077553 -0.011642672 -0.23753236 -0.13154563 0.60814804 0.056558922 -0.24501008
0.16856073 0.07128354 0.0034194298 -0.17807287 -0.42502537 -0.38053387 -0.047472667 -0.11914689
0.12818977 0.24538098 0.008203658 -0.091581866 -0.341145 -0.31081647 -0.0033631162 -0.11977778
0.2523558 -0.111394435 -0.012394895 -0.083817706 -0.205218 0.050618697 0.008590315 -0.053941272
0.13183884 -0.20952 0.054191265 -0.0987588 0.38707626 0.1428668 -0.009380644 -0.1900544
0.047239244 -0.20062834 0.030408874 0.06485284 0.20303033 -0.24631257 -0.018767217 0.016837269
0.004134827 -0.15133181 -0.055852942 0.093577586 -0.15255472 -0.42472684 -0.06738741 0.07725928
0.3579554 0.5970514 0.032364413 -0.06862015 -0.13266663 0.18260135 -0.010922735 0.0072732023
0.07415842 0.49670324 0.0063410136 -0.069027014 -0.20318174 -0.05752569 0.0070728273 -0.079082936
0.074109 0.43436408 0.07497167 -0.38869026 -0.26926216 -0.5671996 0.013303623 -0.45069796
-0.013741622 0.89503205 0.00030746893 -0.046616226 -0.038425185 0.029987993 0.055523872 -0.009139448
0.037159707 0.6582279 -0.03712936 -0.19390981 0.08589848 -0.29844734 -0.07899822 -0.18235143
-0.08013739 0.43018293 0.012610659 -0.05219052 0.030358016 -0.6375949 -0.013988605 -5.8875954e-05
0.16791998 0.5119592 -0.006566208 -0.14961477 0.34982976 -0.27476528 -0.07374252 -0.12589961
0.13899608 0.53497803 -0.04462687 0.019187419 0.3719224 -0.5232378 -0.03660468 -0.031845327
0.23575844 0.59692293 -0.020345122 -0.100185946 0.047973733 0.09284621 0.041146167 -0.07346709
0.045659527 0.14565986 0.049874835 -0.17229626 -0.0004000124 0.12514187 -0.016005235 -0.14201127
0.13882883 0.06344016 0.061655827 -0.15627305 -0.052109256 0.26107767 0.0090040695 -0.20385201
00000000: c227 96bd 4cc1 343d 01aa 79bd 6e5b 57bd
00000010: 1911 89be 64fb 48bd 8450 dabd bdf4 5cbd
00000020: ea4f a8bd 0aaa b73d f447 373b 32f4 f5bd
00000030: bb65 26bd 554e a2bb 5acd 573d bc51 94bd
00000040: 79b3 04be be03 4e3d 4588 e33c b4ce b23d
00000050: 132c 3f3d f58f 643e 492b 9b3d e4f2 363d
00000060: 3cb1 f1bd 83b5 42be 2394 cd3c 52eb d53d
00000070: 568a 1fbe affc 03bf d7f1 923c afb4 2f3d
00000080: f7d9 b2bd a041 5dbe b735 85bd 8d5a 58bc
00000090: 1d03 a53c f4bb 24bf 8f61 f4bd 3081 92bc
000000a0: 4a66 84bd d905 74be a208 663b 3797 2cbe
000000b0: 1825 143e eda4 f7be 940a 70bd 814a 64be
000000c0: 083f bc3d 416d 1abc fb74 2a3c 5c7f d13d
000000d0: 0917 c43d 81d0 7cbe 1c8e 92bd 3feb 19b8
000000e0: 4563 0c3d 2090 56bd c2f4 453a 6667 f5bd
000000f0: ce70 7f3d c794 363d bf63 a13d 898f 11be
00000100: e4c8 ed3c 6de1 d4bd f95d 803d cb9d 333e
00000110: 009a 653c 7119 2f3f 6cd0 bc39 eac3 063e
00000120: 6013 1dbd 766d 6b3e a1a2 9ebb 90e0 a5bd
00000130: 995a 8abd 6149 ea3d 2e8a 77bc 285d 39bc
00000140: 0967 05bd 0b19 e53e 9816 313c 7672 853d
00000150: d1a6 abbd 3bc1 df3d 36ba a0bc 2e8c 903c
00000160: 05a1 98b9 0b74 c63e 6f88 7abc 7cd8 9e3e
00000170: fb71 a13e fa9c 333e bb77 863d c7e4 8f3e
00000180: b389 643e db24 b1be ebf0 3fbc 8da1 dd3d
00000190: d77f bdbd f6b7 f13d 8bd7 063d f795 f43d
000001a0: 5453 3a3e 4e80 c0be 1928 a33c 1423 643d
000001b0: e61f 6ebe 2b79 b53e e302 42bc 80ba 8f3d
000001c0: 8dc7 473e 1a92 9dbe e8c0 3ebc af3b 73be
000001d0: e6b3 06be 97af 1b3f 54aa 673d ece3 7abe
000001e0: 2f9b 2c3e 1bfd 913d 8318 603b bc58 36be
000001f0: ed9c d9be 56d5 c2be b372 42bd 4903 f4bd
00000200: 2e44 033e 2745 7b3e a368 063c 468f bbbd
00000210: 8faa aebe 5623 9fbe ba67 5cbb 0d4e f5bd
00000220: c834 813e c422 e4bd f513 4bbc 9ea8 abbd
00000230: ab24 52be 8d55 4f3d 64be 0c3c 86f1 5cbd
00000240: c300 073e 698c 56be a9f7 5d3d 0e42 cabd
00000250: dc2e c63e ad4b 123e 46b1 19bc 9f9d 42be
00000260: f07d 413d 8471 4dbe 081c f93c 91d1 843d
00000270: 2fe7 4f3e 5d39 7cbe b5bd 99bc 50ee 893c
00000280: 717d 873b baf6 1abe 0ec6 64bd 9ba5 bf3d
00000290: 4e37 1cbe cc75 d9be 6902 8abd 1d3a 9e3d
000002a0: ee45 b73e 5cd8 183f 8c90 043d b988 8cbd
000002b0: c3d9 07be d9fb 3a3e 45f5 32bc 0b54 ee3b
000002c0: 5fe0 973d e34f fe3e 47c8 cf3b 095e 8dbd
000002d0: e00e 50be 0fa0 6bbd 2dc3 e73b 3cf6 a1bd
000002e0: 76c6 973d f864 de3e bf8a 993d 6902 c7be
000002f0: bbdc 89be fe33 11bf 70f7 593c e2c1 e6be
00000300: 8a24 61bc d220 653f c833 a139 a8f0 3ebd
00000310: ba63 1dbd 61a9 f53c 006d 633d a0bd 15bc
00000320: c734 183d a081 283f f514 18bd 4b90 46be
00000330: 8beb af3d 17ce 98be d2c9 a1bd 55ba 3abe
00000340: 121f a4bd f040 dc3e f09c 4e3c bac5 55bd
00000350: 60b1 f83c 6b39 23bf 7630 65bc 93f1 76b8
00000360: 37f3 2b3e c20f 033f 5829 d7bb 9d34 19be
00000370: e31c b33e 09ae 8cbe 5106 97bd d4eb 00be
00000380: fd54 0e3e 52f4 083f aaca 36bd ef2e 9d3c
00000390: 9d6c be3e eaf2 05bf caee 15bd 3f70 02bd
000003a0: a96a 713e f1cf 183f d0aa a6bc 4a2e cdbd
000003b0: 1b80 443d 2726 be3d e288 283d ea75 96bd
000003c0: 7c05 3b3d dc27 153e 8e49 4c3d 6e6e 30be
000003d0: c1b8 d1b9 3125 003e 691d 83bc 676b 11be
000003e0: 2529 0e3e eaec 813d d28a 7c3d 0b06 20be
000003f0: 8470 55bd f9ab 853e ce85 133c 95be 50be

fcs1.bias f4 [256]
-0.0152949765 0.021492405 0.1781582 0.056672912 0.048863582 -0.42707658 0.108004145 -0.21438716
0.29949364 0.034216005 -0.43460292 0.18732208 -0.17044044 -0.5039771 0.13948634 -0.013151141
-0.34197405 -0.27699515 -0.18580784 -0.3663986 -0.070465125 -0.07472212 0.28413576 -0.102870815
-0.3741066 0.13305663 -0.014244069 -0.45054147 -0.1949656 0.41498995 0.18714392 0.1816689
0.47456938 -0.32511163 0.11228367 -0.20806997 -0.3722681 0.00027217087 0.27242452 0.059577547
0.33823153 0.2203699 0.41944984 -0.08730692 -0.011945416 -0.28172114 -0.24249728 -0.5128777
0.07511403 -0.2699813 0.13804848 -0.23846585 0.0041212775 0.017099682 0.012926199 -0.43017662
0.009438805 -0.03272283 0.18001074 0.46734 -0.3518847 -0.0072940392 -0.30488524 -0.11830165
0.20769611 0.43377566 0.5021038 -0.036437415 -0.05055317 0.1145736 -0.1913723 0.46506724
0.026918264 0.37574401 -0.06225666 0.25261012 -0.20133609 -0.004946298 0.15815775 0.2768576
-0.12889539 -0.2286736 -0.33245036 -0.20687705 -0.1976 0.67283845 -0.30583376 -0.20162536
0.054796092 0.14243925 -0.21858461 -0.19764082 0.105707556 -0.003460447 0.033845667 0.29051775
-0.062644675 -0.10668909 -0.45808795 -0.10378808 0.0003948545 0.47857466 -0.1573804 0.39252722
-0.11055663 -0.13938087 0.49561977 0.20657028 -0.15959589 -0.09046675 -0.35201576 -0.35397676
0.17720126 -0.07311537 -0.13076742 0.11059332 -0.073905416 0.61204916 -0.26631558 0.045145266
-0.23605974 0.19044147 -0.013574368 0.19607939 -0.14025998 0.2060989 -0.07249533 0.24182615
0.4085231 0.29128057 0.10469513 -0.3447837 -0.11763841 -0.05220224 -0.49171197 -0.034449335
0.26469052 -0.34525532 -0.34552717 0.36588442 0.07850252 0.10586736 0.20376925 0.24798742
0.02746981 0.48702765 0.5068785 0.18593171 -0.47439408 0.43274987 0.5341358 0.06752632
0.15297532 -0.20767546 0.09643711 0.40170383 -0.73270404 0.086841054 -0.42566857 -0.36248192
-0.13594025 0.16354024 -0.05590384 -0.48210707 0.1788682 -0.15686037 -0.0657608 0.24447484
-0.4243299 0.32391047 -0.36090997 0.07492772 -0.14212698 -0.311736 -0.008939117 -0.12158404
0.089652896 -0.33354932 0.30476257 0.1319765 -0.5458273 0.17526907 0.12839216 0.085245766
-0.10689612 -0.34691778 -0.09203801 0.0306312 0.35374278 0.3179986 0.5710949 -0.51634395
0.09201085 0.2042624 0.23464587 -0.13853496 -0.3287471 -0.06449872 0.17884593 -0.19535331
0.2998635 -0.009732527 0.11337668 -0.46210232 -0.12782115 0.33487964 -0.32511452 -0.036271136
-0.2878833 0.34458005 0.047088075 -0.27043238 0.26544407 -0.55240494 -0.4680172 -0.44512916
-0.31957027 0.33938187 -0.30253786 0.44303748 0.46759686 0.20284691 -0.5141064 -0.084473126
0.08184877 -0.1405842 -0.2960593 0.05763042 -0.1944751 0.15990095 -0.26124275 -0.39927557
-0.009920054 0.30840203 -0.23634988 -0.1609222 0.062777966 -0.39735344 0.36874995 0.0366888
0.1457097 -0.49833766 0.16983986 0.01792975 0.008913433 0.052430186 0.44612455 0.16893129
0.14436452 0.1113599 0.2354577 -0.10630237 0.061225515 0.5999433 0.31532606 0.32346728
00000000: c897 7abc d710 b03c 1a6f 363e db21 683d
00000010: 2e25 483d c8a9 dabe 4731 dd3d 4f88 5bbe
00000020: 3b57 993e 1526 0c3d 4684 debe 5cd1 3f3e
00000030: f087 2ebe a504 01bf 82d5 0e3e e277 57bc
00000040: 3917 afbe 4fd2 8dbe 6944 3ebe 9998 bbbe
00000050: 0550 90bd e907 99bd 3e7a 913e efad d2bd
00000060: e68a bfbe ff3f 083e f55f 69bc 5fad e6be
00000070: 10a5 47be 9079 d43e a8a2 3f3e 6a07 3a3e
00000080: c2fa f23e 0875 a6be fbf4 e53d 4b10 55be
00000090: ed99 bebe 28b2 8e39 3a7b 8b3e 9607 743d
000000a0: af2c ad3e a6a8 613e 21c2 d63e f8cd b2bd
000000b0: b5b6 43bc c13d 90be 3551 78be f44b 03bf
000000c0: 62d5 993d fd3a 8abe 955c 0d3e 6430 74be
000000d0: c80b 873b a214 8c3c 68c8 533c 1c40 dcbe
000000e0: 38a5 1a3c 6008 06bd bc54 383e 3047 ef3e
000000f0: 3b2a b4be d602 efbb eb19 9cbe 2348 f2bd
00000100: 4aae 543e d817 de3e e089 003f 663f 15bd
00000110: d710 4fbd 90a5 ea3d 1af7 43be 4b1d ee3e
00000120: b183 dc3c 8561 c03e d700 7fbd 1d56 813e
00000130: 0c2b 4ebe 8e14 a2bb 1bf4 213e 48c0 8d3e
00000140: 27fd 03be 6a29 6abe ef36 aabe 94d7 53be
00000150: a857 4abe 243f 2c3f 3e96 9cbe e176 4ebe
00000160: de71 603d 98db 113e a5d4 5fbe 5b62 4abe
00000170: 347d d83d abc8 62bb c1a1 0a3d bebe 943e
00000180: da4b 80bd cf7f dabd 818a eabe d88e d4bd
00000190: 7904 cf39 bd07 f53e 5428 21be 54f9 c83e
000001a0: 846b e2bd dcb9 0ebe e0c1 fd3e 2987 533e
000001b0: 1b6d 23be a246 b9bd 693b b4be 713c b5be
000001c0: 3f74 353e 83bd 95bd e5e7 05be c07e e23d
000001d0: b95b 97bd 41af 1c3f 845a 88be 3eea 383d
000001e0: a5b9 71be 1703 433e 0767 5ebc 09c9 483e
000001f0: 50a0 0fbe 970b 533e 6e78 94bd 46a1 773e
00000200: f129 d13e ba22 953e 666a d63d 7d87 b0be
00000210: 68ec f0bd 04d2 55bd acc1 fbbe bf1a 0dbd
00000220: 8485 873e 4ec5 b0be f0e8 b0be 3455 bb3e
00000230: eec5 a03d fdd0 d83d e3a8 503e 6af0 7d3e
00000240: 5e08 e13c b05b f93e cac2 013f e264 3e3e
00000250: c8e3 f2be 6491 dd3e 20bd 083f 3d4b 8a3d
00000260: 90a5 1c3e e0a8 54be d280 c53d 20ac cd3e
00000270: 7e92 3bbf b9d9 b13d 3bf1 d9be 3b97 b9be
00000280: ec33 0bbe 1877 273e 6dfb 64bd bdd6 f6be
00000290: 3a29 373e 01a0 20be 99ad 86bd 9d57 7a3e
000002a0: c541 d9be 98d7 a53e 31c9 b8be b473 993d
000002b0: bc89 11be dc9b 9fbe 6075 12bc 0e01 f9bd
000002c0: f09b b73d fac6 aabe d709 9c3e d924 073e
000002d0: 57bb 0bbf bc79 333e 3c79 033e 5595 ae3d
000002e0: 5aec dabd 359f b1be 6d7e bcbd 48ee fa3c
000002f0: c61d b53e b6d0 a23e 4633 123f 1e2f 04bf
00000300: 2f70 bc3d 2a2a 513e 0247 703e 1cdc 0dbe
00000310: 8a51 a8be e817 84bd 6323 373e b30a 48be
00000320: b587 993e 2d75 1fbc 0832 e83d ad98 ecbe
00000330: 8ce3 02be 5875 ab3e 6975 a6be 0b91 14bd
00000340: 7165 93be cc6c b03e 6ddf 403d 1d76 8abe
00000350: 49e8 873e 696a 0dbf f39f efbe f8e7 e3be
00000360: b79e a3be 76c3 ad3e 3ee6 9abe cfd5 e23e
00000370: db68 ef3e 1ab7 4f3e 7a9c 03bf 3f00 adbd
00000380: 54a0 a73d 4ef5 0fbe 1695 97be e00d 6c3d
00000390: 7b24 47be 13bd 233e 9cc1 85be d96d ccbe
000003a0: b987 22bc dfe6 9d3e b405 72be cac8 24be
000003b0: bc91 803d e971 cbbe cbcc bc3e ff46 163d
000003c0: ec34 153e 1d26 ffbe 80ea 2d3e 69e1 923c
000003d0: a609 123c 09c1 563d 706a e43e 53fc 2c3e
000003e0: 4bd4 133e a910 e43d d31b 713e 0fb5 d9bd
000003f0: 9bc7 7a3d e295 193f 6b72 a13e 819d a53e

fc2.weight f4 [128, 258]
-0.034153275 -0.004248099 -0.06168705 -0.26728824 -0.19060408 0.050840996 -0.38585624 0.09932852
-0.089176424 0.08186898 0.08232327 -0.06358444 0.09323531 -0.028308531 -0.035422396 0.23789708
-0.17552085 -0.4355256 0.13129523 -0.7629624 0.32549244 0.04136798 -0.06041663 0.1341596
0.0688352 -0.0070848945 0.000570688 0.060628034 -0.40864426 -0.117437206 -0.58441013 -0.051479686
-0.3912591 -0.25948688 -0.17351809 0.32018378 0.03404317 0.20478272 0.1945118 -0.056178913
-0.1229393 -0.12491781 0.018446725 0.0590935 -0.009995306 -0.13470042 -0.015404576 -0.1248076
-0.21791326 -0.29509178 0.07571849 -0.33148462 -0.012186531 -0.019154366 -0.06591911 0.09334499
-0.2914893 0.09257837 -0.18032536 0.13172734 -0.25175148 -0.006379441 -0.4778414 0.018097902
0.29600403 0.047073387 0.22233918 -0.45838925 0.108936094 0.09252937 0.101655535 0.13895269
0.097465575 0.042383134 0.011109393 0.054662433 0.30210456 -0.0050044646 -0.17822245 -0.043748714
0.18060045 0.028489554 -0.010699185 -0.023049375 0.18021464 0.015866516 -0.21903072 0.19547246
-0.14243376 -0.2543235 0.06753578 0.08960709 -0.56671214 0.09259167 0.13678798 0.09179178
-0.7081145 0.0038863567 0.025835136 -0.2867082 -0.23783572 0.09771675 0.07453122 -0.007091804
0.10344402 0.047713637 0.06533002 -0.0931321 -0.015107731 0.09303875 -0.13849255 0.21880366
0.35071594 -0.013304592 0.028978787 -0.032183718 -0.4359714 0.10399491 0.11832946 -0.068832554
0.086709924 0.18720022 -0.21853416 0.056343045 -0.016652096 -0.14918846 -0.039940495 -0.08312824
-0.019690873 0.31484628 0.17925858 -0.06699035 0.39878505 -0.0031856825 -0.38401675 0.0488131
0.1405662 0.10372801 -0.028052662 0.063869044 0.06442066 -0.028966796 0.104892045 -0.043047264
0.06763597 0.07175025 0.01543631 -0.004162699 -0.03943441 -0.0012812531 0.08578647 -0.009454967
-0.105080865 0.044172496 0.02804999 -0.16545072 -0.00951045 0.13036841 -0.18024594 0.17668082
0.07225478 -0.8315017 -0.3469191 -0.2616797 0.040211055 -0.5567556 -0.15507865 -0.053602736
0.018868858 -0.123829715 -0.040855158 -0.05227791 -0.23435047 -0.18661433 -0.1454602 0.066529445
-0.082154386 -0.6653426 0.015483818 -0.2565734 0.12929106 -0.07389029 -0.07267371 -0.004483477
-0.022637542 -0.07432977 -0.4232674 -0.3243581 0.043749996 -0.007129612 0.038784675 0.12282838
0.039457515 0.05916297 0.23161285 -0.06354532 0.08030581 -0.17834197 0.04405769 0.081910476
-0.14676702 -0.12525532 0.06874966 0.0988034 0.24258919 -0.01097739 0.07513384 -0.040158547
0.14425097 0.11170526 0.04353871 -0.06600615 -0.12603122 -0.03475687 -0.11316646 0.29711568
-0.12384589 0.14384614 -0.017487278 0.17915091 -0.04544176 0.009576009 0.093413934 0.032110535
0.1898064 0.02023867 -0.06604688 0.17919737 -0.092307806 0.16867463 -0.033232845 -0.12127205
-0.18625192 0.052442838 -0.10283159 -0.408914 -0.028522858 -0.016367324 -0.06724418 -0.20802346
-0.10525812 0.010651372 0.14459106 0.13520375 -0.57934755 -0.003204582 0.060379427 0.20576355
0.09915062 0.021352803 0.13372794 -0.32291996 0.019892154 -0.12612128 0.14844315 0.01195902
00000000: 4ee4 0bbd a333 8bbb 8fab 7cbd 01da 88be
00000010: b72d 43be a63e 503d f38e c5be c06c cb3d
00000020: 21a2 b6bd ecaa a73d 1a99 a83d 8f38 82bd
00000030: 27f2 be3d 4be7 e7bc 1317 11bd 4b9b 733e
00000040: bdbb 33be 36fd debe 4272 063e 8151 43bf
00000050: f2a6 a63e 7971 293d 6e77 77bd 2261 093e
00000060: 78f9 8c3d 6728 e8bb 399a 153a 1a55 783d
00000070: d239 d1be eb82 f0bd e79b 15bf 5ddc 52bd
00000080: 1d53 c8be 77db 84be baae 31be 21ef a33e
00000090: da70 0b3d 90b2 513e 1a2e 473e dc1b 66bd
000000a0: 9ac7 fbbd e9d4 ffbd 961d 973c 070c 723d
000000b0: 5ac3 23bc e8ee 09be 7a63 7cbc 219b ffbd
000000c0: a724 5fbe 4516 97be 4c12 9b3d 5ab8 a9be
000000d0: 04aa 47bc 9ee9 9cbc 9900 87bd a82b bf3d
000000e0: 163e 95be ba99 bd3d 36a7 38be 88e3 063e
000000f0: 92e5 80be a10a d1bb a1a7 f4be 0d42 943c
00000100: d78d 973e 06d0 403d e2ac 633e ffb1 eabe
00000110: e319 df3d 0a80 bd3d c730 d03d 9d49 0e3e
00000120: 089c c73d f099 2d3d 2c04 363c b7e5 5f3d
00000130: 73ad 9a3e 7efc a3bb f27f 36be da31 33bd
00000140: 53ef 383e ed62 e93c a24b 2fbc 0bd2 bcbc
00000150: 308a 383e 7ffa 813c 9749 60be ef29 483e
00000160: 28da 11be b136 82be 3350 8a3d ec83 b73d
00000170: 0c14 11bf b4a0 bd3d 2612 0c3e 54fd bb3d
00000180: fe46 35bf 3fb2 7e3b 35a4 d33c 6bcb 92be
00000190: 358b 73be b81f c83d d3a3 983d 5d62 e8bb
000001a0: 75da d33d 606f 433d bfcb 853d 0bbc bebd
000001b0: 6b86 77bc 1a8b be3d fed0 0dbe 110e 603e
000001c0: 0a91 b33e 81fb 59bc ec64 ed3c 13d3 03bd
000001d0: a537 dfbe 49fb d43d b756 f23d 15f8 8cbd
000001e0: f994 b13d 6ab1 3f3e 6bc7 5fbe f7c7 663d
000001f0: fa69 88bc dcc4 18be a598 23bd 243f aabd
00000200: c14e a1bc 8833 a13e 908f 373e 3d32 89bd
00000210: 8e2d cc3e e2c6 50bb d89d c4be 3ff0 473d
00000220: 96f0 0f3e 5a6f d43d b2ce e5bc c6cd 823d
00000230: fbee 833d c64b edbc a4d1 d63d 5452 30bd
00000240: ba84 8a3d ccf1 923d 94e8 7c3c 4067 88bb
00000250: fa85 21bd b8ef a7ba d1b0 af3d 02e9 1abc
00000260: a334 d7bd 38ee 343d 18c9 e53c ea6b 29be
00000270: b8d1 1bbc 4c7f 053e 6492 38be d1eb 343e
00000280: 50fa 933d 4cdd 54bf 619f b1be e2fa 85be
00000290: 59b4 243d 8987 0ebf f0cc 1ebe 8b8e 5bbd
000002a0: dd92 9a3c 6f9a fdbd bd57 27bd 5d21 56bd
000002b0: 92f9 6fbe d417 3fbe 85f3 14be 9740 883d
000002c0: 8f40 a8bd e553 2abf d7af 7d3c 975d 83be
000002d0: e064 043e cb53 97bd f4d5 94bd 22ea 92bb
000002e0: 5e72 b9bc 353a 98bd 81b6 d8be 4412 a6be
000002f0: 3233 333d 859f e9bb aedc 1e3d 728d fb3d
00000300: 349e 213d df54 723d eb2b 6d3e 0c24 82bd
00000310: 5f77 a43d 479f 36be d675 343d aec0 a73d
00000320: 184a 16be ee42 00be 9fcc 8c3d 7059 ca3d
00000330: 4d69 783e 83da 33bc c5df 993d 4a7d 24bd
00000340: 87b6 133e bac5 e43d a555 323d 3b2e 87bd
00000350: 540e 01be 385d 0ebd d1c3 e7bd 8c1f 983e
00000360: eaa2 fdbd 674c 133e 7b41 8fbc 5673 373e
00000370: 2421 3abd b1e4 1c3c ce4f bf3d 5686 033d
00000380: 9c5c 423e 91cb a53c 9643 87bd 847f 373e
00000390: e00b bdbd 0bb9 2c3e 2a1f 08bd 7b5d f8bd
000003a0: d3b8 3ebe 4dce 563d 5e99 d2bd 2d5d d1be
000003b0: c5a8 e9bc c414 86bc 51b7 89bd 1a04 55be
000003c0: 9291 d7bd 1883 2e3c ae0f 143e da72 0a3e
000003d0: 1f50 14bf f703 52bb 6b50 773d aeb3 523e
000003e0: 7b0f cb3d 13ec ae3c faef 083e c455 a5be
000003f0: dff4 a23c f025 01be 7b01 183e c4ef 433c

fc2.bias f4 [128]
0.3612704 -0.17423742 0.073172785 0.37135154 -0.16951643 -0.037974983 0.44442487 0.22192216
-0.2155416 0.0052378676 0.24768375 -0.3304908 -0.5455663 0.15467685 0.113293245 0.32937917
0.4959832 0.14043066 -0.2652912 0.3198539 -0.34270614 -0.21145658 0.3947376 -0.34704524
-0.47941872 -0.99524486 0.18396251 -0.08984469 0.06498615 0.20495857 0.5373334 0.4022437
-0.07311684 -0.9483097 0.010547794 0.21475694 0.16167048 -0.23355922 -0.33033246 -0.12378464
0.32644796 -0.97832954 0.24464194 0.3667216 0.1424346 -0.2989159 0.399544 0.06236865
0.12372052 0.18506774 0.010996313 0.28487498 0.26366496 0.22721906 -0.06339954 0.7061505
-0.0024402272 0.49691865 -0.17972198 -0.20912957 -1.0122985 0.8932022 0.22703695 0.5518117
-0.115310125 -0.24325165 -0.29896674 -0.5314301 -0.50642234 0.10336672 -0.24235897 -0.052418392
-1.0486355 -0.2712407 -0.49559116 0.1272261 0.23369423 -0.018825274 -0.40188017 0.245389
0.17623578 -1.0424696 0.39437214 -1.0116843 0.04792834 -1.047566 -0.27474302 0.33903548
0.7111321 -0.15336607 -0.292616 0.56110007 -0.28910142 -0.16557428 0.67600745 0.23256138
0.3311235 0.11877539 -0.17201994 -0.43515602 -1.0865272 0.47154987 0.33726716 0.27710086
-0.20139919 0.25520602 -1.0679759 0.12194178 0.46144652 -1.0529474 0.41601366 0.115864135
-0.22817712 0.15266259 0.2318919 -0.51135993 0.37063074 0.16567634 0.1809053 0.17421368
0.047956776 -0.3668169 -0.22344111 0.41218418 -1.032158 0.42843288 0.39407045 0.19366927
00000000: 6ff8 b83e 4b6b 32be 9ddb 953d ca21 be3e
00000010: b795 2dbe a88b 1bbd a88b e33e 903f 633e
00000020: f0b6 5cbe 6ba2 ab3b cfa0 7d3e 1736 a9be
00000030: 3caa 0bbf 9c63 1e3e 4a06 e83d 63a4 a83e
00000040: 83f1 fd3e 0ecd 0f3e 40d4 87be e4c3 a33e
00000050: 2e77 afbe 1388 58be 0c1b ca3e eaaf b1be
00000060: 5f76 f5be 5ec8 7ebf ab60 3c3e 7e00 b8bd
00000070: 7517 853d a9e0 513e af8e 093f e3f2 cd3e
00000080: 48be 95bd 6dc4 72bf a8d0 2c3c 3ee9 5b3e
00000090: f28c 253e 262a 6fbe 5621 a9be cd82 fdbd
000000a0: 3024 a73e ce73 7abf 6b83 7a3e efc2 bb3e
000000b0: 60da 113e 810b 99be 0891 cc3e 4576 7f3d
000000c0: 2f61 fd3d 6682 3d3e e129 343c 22db 913e
000000d0: 18ff 863e 1dac 683e 9ed7 81bd 47c6 343f
000000e0: 38ec 1fbb 1f6c fe3e 0a09 38be 1026 56be
000000f0: ff92 81bf e6a8 643f 607c 683e 8843 0d3f
00000100: b727 ecbd f616 79be 2b12 99be ce0b 08bf
00000110: e5a4 01bf eeb1 d33d f32c 78be abb4 56bd
00000120: b039 86bf 10e0 8abe 20be fdbe 8f47 023e
00000130: 8a4d 6f3e 7637 9abc 3dc3 cdbe 4147 7b3e
00000140: 2777 343e a56f 85bf 25eb c93e df7e 81bf
00000150: 8250 443d a516 86bf 1eab 8cbe 0f96 ad3e
00000160: c10c 363f ff0b 1dbe c4d1 95be 41a4 0f3f
00000170: 1a05 94be 4e8c 29be d30e 2d3f 9224 6e3e
00000180: 0589 a93e 8340 f33d ff25 30be c5cc debe
00000190: 5313 8bbf fc6e f13e 48ae ac3e 2ae0 8d3e
000001a0: 973b 4ebe 5daa 823e 6fb3 88bf 9dbc f93d
000001b0: b842 ec3e fbc6 86bf beff d43e 2d4a ed3d
000001c0: 43a7 69be 9553 1c3e 1275 6d3e 7ce8 02bf
000001d0: 50c3 bd3e 0fa7 293e 3d3f 393e 1265 323e
000001e0: 536e 443d 6dcf bbbe bfcd 64be ce09 d33e
000001f0: c11d 84bf 8e5b db3e 9ac3 c93e 3d51 463e

fc3.weight f4 [1, 128]
0.27381566 -0.84432465 0.40441644 0.56950206 -0.8598727 -1.9198074 0.7097046 0.88857126
-0.80794746 0.85317224 0.9061791 -0.89027077 -1.1141876 0.7315618 1.1264979 0.3795089
0.6524021 1.1686776 -0.97128916 0.44763097 -2.7746882 -1.102423 0.5459248 -0.7801088
-0.48810667 -0.3864879 0.7181675 -1.8115872 1.2916963 0.67534786 0.31349915 0.5247493
-1.6561482 -0.3732261 -1.0145996 0.32533577 0.57323635 -0.5411545 -0.9383589 -1.7060684
0.8002795 -0.3652542 0.32789642 1.1125689 0.7244939 -0.82061565 1.2542081 -2.6072972
0.41522732 1.1021143 1.6439652 0.35913438 0.64602536 0.69662184 -1.1418127 0.5185832
1.5735455 0.41303703 -1.0059901 -1.5423508 -0.38508967 0.50183785 0.7366019 0.39164606
-1.3556396 -0.54387987 -0.45224637 -2.2524667 -0.4436203 0.7374642 -1.7616162 -0.8596203
-0.366992 -0.887996 -0.59341335 0.8745673 0.29301894 -1.0073966 -1.0375723 0.66180384
0.7680852 -0.35670483 0.5606343 -0.37475726 1.2298506 -0.3703072 -1.353119 0.30671322
0.44333658 -0.8424248 -0.9651906 0.56291854 -0.5122661 -1.429049 0.41389686 0.8572742
0.6674444 -1.5059754 -1.1752717 -0.93388736 -0.3580126 1.2919693 0.57525724 0.5890386
-1.3175637 0.49202177 -0.37807477 1.2016437 0.34097362 -0.3579232 0.41991618 0.49961314
-0.8277507 0.457045 0.7938316 -0.42071822 0.53004086 0.8636815 0.7611679 1.0001148
1.6929966 -0.4754393 -1.1069027 0.3869582 -0.37075424 0.35372156 0.61666834 1.0659921
00000000: 9131 8c3e a925 58bf ac0f cf3e e3ca 113f
00000010: 9e20 5cbf 40bc f5bf 33af 353f 6879 633f
00000020: a5d5 4ebf 7f69 5a3f 5afb 673f c9e8 63bf
00000030: b39d 8ebf a247 3b3f 1531 903f fe4e c23e
00000040: d303 273f 3a97 953f 68a6 78bf e32f e53e
00000050: 7e94 31c0 321c 8dbf bac1 0b3f 36b5 47bf
00000060: 1ee9 f9be bee1 c5be d3d9 373f 17e2 e7bf
00000070: 4e56 a53f 99e3 2c3f f682 a03e f855 063f
00000080: aafc d3bf 7e17 bfbe 66de 81bf 6992 a63e
00000090: 9ebf 123f 1a89 0abf 4a38 70bf 7360 dabf
000000a0: 1edf 4c3f 9902 bbbe 0ae2 a73e a868 8e3f
000000b0: 6f78 393f de13 52bf e489 a03f f5dd 26c0
000000c0: ad98 d43e 1512 8d3f 746d d23f 76e0 b73e
000000d0: eb61 253f cf55 323f eb26 92bf dec1 043f
000000e0: f069 c93f 9779 d33e 49c4 80bf c06b c5bf
000000f0: 792a c5be 7278 003f f191 3c3f d585 c83e
00000100: 9985 adbf b63b 0bbf d68c e7be 6a28 10c0
00000110: 3322 e3be 74ca 3c3f a47c e1bf 1310 5cbf
00000120: 60e6 bbbe b553 63bf f0e9 17bf a4e3 5f3f
00000130: 9406 963e 5ff2 80bf 2bcf 84bf fa6b 293f
00000140: 3ba1 443f 04a2 b6be bb85 0f3f 2fe0 bfbe
00000150: bf6b 9d3f e898 bdbe 0133 adbf 8409 9d3e
00000160: 03fd e23e 27a9 57bf bb16 77bf 6e1b 103f
00000170: df23 03bf 14eb b6bf 4aea d33e 5276 5b3f
00000180: a3dd 2a3f cdc3 c0bf 4e6f 96bf 3e13 6fbf
00000190: 6d4d b7be 405f a53f 0f44 133f 3ccb 163f
000001a0: eda5 a8bf 47ea fb3e 0493 c1be 76cf 993f
000001b0: 1894 ae3e b641 b7be 41ff d63e 4bcd ff3e
000001c0: 78e7 53bf cd01 ea3e 8c38 4b3f 6168 d7be
000001d0: c2b0 073f 3b1a 5d3f e6db 423f c303 803f
000001e0: 1db4 d83f c86c f3be fdae 8dbf 631f c63e
000001f0: 80d3 bdbe fe1a b53e fadd 1d3f 6e72 883f
