checkpoint_actor2.pth (torch, 299564 bytes, 10 tensors)

fc1.weight f4 [256, 24]
0	0xbdf2ac99	-0.11849327
1	0xbd8e75b1	-0.069560416
2	0x3cef0b1d	0.029180104
3	0x3d8e6b97	0.06954115
4	0xbe534ddb	-0.20635168
5	0x3e89b9e7	0.26899645
6	0xbcbb893e	-0.02289259
7	0x3dbf07e7	0.09327679
8	0xbe70ed82	-0.23528102
9	0xbd9c8b2a	-0.07643731
10	0xbd2f795c	-0.042840347
11	0xbca0d0bc	-0.019630782
12	0xbe168e05	-0.14702614
13	0xbe05ea6a	-0.13077703
14	0x3d38e94d	0.045144368
15	0xbd51868c	-0.051153705
16	0xbe726a25	-0.23673303
17	0xbb1f85b6	-0.0024341173
18	0xbd3e1db4	-0.046415046
19	0x3e71adc8	0.23601449
20	0x3dbfcb6b	0.09364971
21	0xbf0a5491	-0.5403529
22	0xbd2f8ab1	-0.042856876
23	0x3e620e7b	0.22075836
24	0x3e801880	0.25018692
25	0x3e0e0390	0.13868546
26	0x3ccad94f	0.024761824
27	0xbd1273de	-0.03575503
28	0x3e803e9d	0.2504777
29	0xbd36cea2	-0.044630654
30	0x3de2aad1	0.11067737
31	0xbdadccad	-0.084863044
32	0x3e7c34fb	0.24629585
33	0x3d5fa673	0.054602098
34	0xbd1f90b7	-0.03895637
35	0xbe3243ec	-0.17408723
36	0x3e25ba86	0.16184434
37	0xbdb6265a	-0.08894034
38	0x3cf1e09d	0.02952605
39	0xbe1fdeb2	-0.15612295
40	0x3e691d83	0.22765164
41	0xbc5afc43	-0.013365808
42	0x3b3a03ad	0.0028383539
43	0xbe373e11	-0.1789477
44	0x3e12945e	0.1431441
45	0xbeb40ff0	-0.3516841
46	0x3d092f7c	0.03349255
47	0xbe95a87d	-0.2923011
48	0x3c47b44c	0.012188982
49	0x3df772b5	0.120824255
50	0x3e1ec880	0.15506172
51	0xbe783e44	-0.24242502
52	0xbdceadbc	-0.10091731
53	0xbe1c8ce4	-0.1528812
54	0x3e1ee2af	0.1551616
55	0xbe7b64c3	-0.24550156
56	0x3d4a0e0f	0.049329814
57	0x3e084739	0.1330842
58	0x3c5e327b	0.01356184
59	0x3ca9ae0e	0.020712879
60	0xbe1b3d2d	-0.15160055
61	0xbd3370fb	-0.04380892
62	0x3cca1cc2	0.024671916
63	0x3dec3744	0.115339786
64	0xbb9c98d1	-0.0047789593
65	0xbd24870b	-0.04016785
66	0x3d9c1194	0.0762054
67	0xbe875b58	-0.26436877
68	0xbddbf078	-0.10739225
69	0x3e6b2506	0.22963342
70	0x3bd250bf	0.006418317
71	0xbe846992	-0.25861794
72	0x3e5ce967	0.21573411
73	0xbe2f744e	-0.1713421
74	0x3cecb0d2	0.028892908
75	0x3cf3ed02	0.0297761
76	0x3df2ef23	0.11862018
77	0x3de161a3	0.11004951
78	0x3d1f2225	0.038850922
79	0x3da7f2a7	0.08200579
80	0x3def7ae0	0.116933584
81	0xbe2cd791	-0.16879107
82	0xbc3f8bb0	-0.011691019
83	0x3e1f0705	0.15530021
84	0x3e9c9682	0.30583578
85	0x3d9ce2c4	0.076604396
86	0x3cd2c483	0.02572847
87	0x3e56e4c1	0.209857
88	0x3e4a92f9	0.19782628
89	0xbe5a5b62	-0.21323922
90	0xbb6c4a2d	-0.0036054954
91	0x3e4a88e1	0.19778778
92	0x3ed323df	0.41238305
93	0x3e166e66	0.14690551
94	0xbcb302db	-0.021851948
95	0x3e0782fa	0.13233557
96	0xbc75f136	-0.015011122
97	0xbec76be5	-0.38949504
98	0xba7d1bfc	-0.0009655354
99	0x3d12d97f	0.03585195
100	0xbe44caa9	-0.19217934
101	0xbd493785	-0.049125213
102	0xbc3299b0	-0.0109009
103	0x3db67c41	0.08910418
104	0x3d506170	0.050874174
105	0xbed375f4	-0.4130093
106	0x3d15226e	0.036409788
107	0x3db2b615	0.08726136
108	0xbe115724	-0.14193398
109	0x3e3c5271	0.18390824
110	0x3de0a0b2	0.1096815
111	0x3e3a7f9b	0.1821274
112	0x3de3dd43	0.11126187
113	0xbed9d735	-0.42547002
114	0x3d8c8e6c	0.06863102
115	0xbdb9e639	-0.090771146
116	0xbd5c26e0	-0.05374801
117	0x3ec97b2a	0.3935178
118	0x3cca9a35	0.024731735
119	0xbe247807	-0.16061412
120	0xbebf9536	-0.37418526
121	0x3e4b76bc	0.19869512
122	0x3d0281af	0.031861957
123	0x3c58489c	0.013200905
124	0x3d8dc11f	0.069216006
125	0xbeb2a976	-0.34894913
126	0x3d854d12	0.065088406
127	0xbcaa536b	-0.02079173
128	0xbed37c3d	-0.41305724
129	0x3e909914	0.2824179
130	0xba74043d	-0.0009308493
131	0xbdf2cdc2	-0.118556514
132	0x3d1a786f	0.03771251
133	0xbe0495d3	-0.12947778
134	0x3cae76ca	0.021296877
135	0xbd02be33	-0.03191967
136	0xbead9e18	-0.33909678
137	0x3eb959ee	0.36201423
138	0x3d49d551	0.0492757
139	0xbe074a45	-0.13211925
140	0xbcd9c87b	-0.026584854
141	0x3e301e85	0.17199142
142	0xbbe3a521	-0.006947175
143	0xbd70affb	-0.058761578
144	0xbcda7e27	-0.026671482
145	0xbd3e31b9	-0.046434138
146	0x3d9530da	0.07284708
147	0x3e6c4ebd	0.23076911
148	0x3d99bc2e	0.075065956
149	0x3e8bfd8c	0.27341878
150	0x3da53b26	0.08067922
151	0x3e8a2ccd	0.26987305
152	0x3dcddf8f	0.10052406
153	0xbd56d3d6	-0.052448116
154	0x3d2fb90a	0.042901076
155	0xbe6a94f8	-0.2290839
156	0x3d3a7cae	0.04552906
157	0x3d2b4f1f	0.041823503
158	0x395b9ad9	0.00020943153
159	0xbe9bdcce	-0.30441898
160	0x3e69102b	0.22760074
161	0x3a7d06d7	0.00096522033
162	0xbdf959a9	-0.121753044
163	0xbc679748	-0.014135189
164	0x3deb58a0	0.11491513
165	0xbee0a88f	-0.438786
166	0xbdd95cab	-0.10613378
167	0xbd0412d1	-0.032244507
168	0x3e54e0c4	0.20788866
169	0xbe243b96	-0.16038355
170	0x3d90ddaf	0.07073533
171	0x3eb9a7cd	0.36260834
172	0x3d8ed391	0.06973947
173	0x3f0865b6	0.532802
174	0xbbfa2c2e	-0.007634661
175	0x3ebea483	0.37234887
176	0x3defb68d	0.11704741
177	0xbcd41da3	-0.025893038
178	0x3cc3efff	0.02391815
179	0x3db64b02	0.08901025
180	0xbd5eda09	-0.054407153
181	0x3ec874a9	0.39151505
182	0xbcd0dcbe	-0.025495883
183	0x3d9d8d98	0.076930225
184	0x3e385771	0.18002106
185	0xbdc73aa9	-0.097279854
186	0xbd0f3156	-0.03495916
187	0xbe0f2d9a	-0.1398224
188	0xbe267080	-0.16253853
189	0x3e89719a	0.26844484
190	0x3d76ea0e	0.060281806
191	0xbe7adac4	-0.24497515
192	0xbd6d651b	-0.05795775
193	0xbe88b6e1	-0.26702026
194	0xbdc0812b	-0.09399637
195	0x3e2bb2c4	0.16767412
196	0x3ea352e6	0.31899184
197	0x3d34961e	0.044088475
198	0xbdcbf1a8	-0.09958202
199	0x3e3ce2a0	0.18445826
200	0xbdc43e07	-0.09582143
201	0xbe8d7175	-0.27625623
202	0xbc42af76	-0.011882653
203	0x3e5a85d0	0.21340108
204	0x3e30935c	0.17243713
205	0x3d964836	0.07337992
206	0x3acab5a2	0.0015465508
207	0x3e71a07e	0.23596379
208	0xbded2279	-0.11578841
209	0xbe1c67a6	-0.15273914
210	0xbca79eb6	-0.020461421
211	0x3e735c53	0.23765688
212	0x3e416a94	0.18888313
213	0xbd96d82e	-0.07365452
214	0xbd5dd8c2	-0.054161794
215	0x3e561b80	0.20908928
216	0x3ca73b82	0.020414118
217	0x3e9246b4	0.28569567
218	0xbcb0a7c8	-0.02156438
219	0xbd9f2d40	-0.07772303
220	0xbd709da1	-0.058744077
221	0x3d71e7fb	0.059059124
222	0x3ceef1da	0.029168058
223	0xbda8d4be	-0.08243702
224	0xbe3757ca	-0.17904583
225	0x3d5f717e	0.054551594
226	0x3dd4b8ce	0.10386811
227	0xbea27f6c	-0.3173784
228	0xbd8cc684	-0.06873801
229	0x3de46a7a	0.11153121
230	0x3d927ca0	0.071526766
231	0xbeaf3fee	-0.34228462
232	0xbdba4b39	-0.09096379
233	0x3d3b316d	0.045701433
234	0x3e1cca4c	0.15311545
235	0xbd49dc05	-0.049282093
236	0xbda02105	-0.07818798
237	0xbd2d1067	-0.04225197
238	0x3e3d967e	0.1851444
239	0xbdad1ef8	-0.084531724
240	0xbc844522	-0.016146246
241	0x3e769067	0.24078523
242	0xbdac99be	-0.084277615
243	0x3e0a37dd	0.13497873
244	0xbd114306	-0.03546431
245	0x3f029da5	0.51021796
246	0xbc2a8396	-0.010407349
247	0x3dbf4c81	0.09340764
248	0xbc97d3f7	-0.01853369
249	0x3e38f729	0.18063034
250	0x3c918d05	0.017767439
251	0xbe060cc3	-0.13090806
252	0x3de7dc51	0.11321319
253	0x3f07d55a	0.53059924
254	0x3c0fadcc	0.008769464
255	0xbdd76c31	-0.10518683

fc1.bias f4 [256]
0	0xbe3e86e6	-0.18606147
1	0xbdf078be	-0.1174178
2	0x3e0c4a95	0.13700326
3	0xbd15e7c9	-0.036598
4	0x3dabd3a7	0.08389979
5	0xbe2e52bf	-0.17023753
6	0xbe230ae7	-0.15922128
7	0xbda63dc0	-0.08117247
8	0x3b8bdcc0	0.004268259
9	0xbd41e319	-0.047335718
10	0xbdf19477	-0.117958955
11	0xbcf1810c	-0.02948048
12	0xbd5d87e7	-0.054084685
13	0xbe3e6366	-0.18592605
14	0x3d831f74	0.064024836
15	0xbdcf001e	-0.10107444
16	0xbdf4f604	-0.11960986
17	0x3dba1579	0.09086127
18	0xbe23c9f7	-0.15995012
19	0xbddb1ce3	-0.10698869
20	0x3d8a1901	0.0674305
21	0xbe11534a	-0.14191929
22	0x3df722bb	0.12067171
23	0x3e3050fd	0.17218395
24	0xbdfde152	-0.12396492
25	0x3ce26692	0.0276368
26	0x3dd49263	0.103794836
27	0xbdd284b0	-0.102792144
28	0xbde8cc73	-0.113671206
29	0x3d8c2fb7	0.068450384
30	0x3ca2fc2b	0.019895634
31	0x3e267637	0.16256033
32	0x3e4e4d98	0.20146787
33	0x3d9c20bc	0.07623431
34	0x3de57cf5	0.11205474
35	0xbe2a594f	-0.16635631
36	0xbcb413ff	-0.021982191
37	0xbd644acd	-0.055735398
38	0x3de2beae	0.110715255
39	0xbe151027	-0.14556943
40	0x3d9dbda1	0.077021845
41	0xbdc635ff	-0.09678268
42	0x3e4d2600	0.20034027
43	0x3d54337f	0.051806923
44	0xbd1131ef	-0.03544801
45	0xbde4251d	-0.11139891
46	0xbde926b1	-0.11384333
47	0xbd9342d5	-0.071904816
48	0xbd581a1c	-0.052759275
49	0xbcf7693e	-0.03020155
50	0x3ddb00c4	0.106935054
51	0xbe2a6dab	-0.16643398
52	0xbdcf7f7a	-0.10131736
53	0x3e215179	0.15753736
54	0xbc0ddc9a	-0.008658553
55	0xbe134890	-0.14383149
56	0xbd9c3f00	-0.07629204
57	0xbdbd0dd9	-0.09231157
58	0xbd1b8a2a	-0.03797356
59	0x3e37c333	0.17945556
60	0xbd7cc243	-0.0617087
61	0x3da2f968	0.07957727
62	0x3dda9541	0.10672999
63	0xbda741c4	-0.08166841
64	0x3e471035	0.19439776
65	0x3df83ce1	0.12120987
66	0x3d6eea90	0.058329165
67	0xbd33b663	-0.04387511
68	0x3c119012	0.008884447
69	0x3e1b4bf9	0.151657
70	0xbe29da26	-0.16587123
71	0x3dd88b8e	0.10573493
72	0x3c12ecdb	0.008967604
73	0x3e10b8a7	0.1413294
74	0xbd1928ce	-0.03739243
75	0x3e226d64	0.15862042
76	0xbe32d0c5	-0.17462452
77	0xbdac9d28	-0.08428413
78	0xbe1ecf88	-0.15508854
79	0x3e2ab745	0.16671474
80	0x3cc5a60b	0.024127027
81	0xbe460009	-0.19335951
82	0xbe1a322f	-0.15058206
83	0xbe37bc77	-0.17942987
84	0x3d97bdf3	0.07409277
85	0x3e1ffc95	0.15623696
86	0xbd909004	-0.07058719
87	0xbd8e2819	-0.06941242
88	0xbc94fa48	-0.01818575
89	0x3d6d3872	0.05791516
90	0xbd8d6dd4	-0.06905714
91	0xbe3a526b	-0.18195502
92	0x3d9e95f4	0.07743445
93	0x3d821052	0.06350769
94	0xbd3c49e9	-0.045968924
95	0x3e417148	0.1889087
96	0x3bd8140f	0.006594188
97	0xbe4c2375	-0.19935401
98	0xbe2a0e2b	-0.16606967
99	0xbda7401c	-0.08166525
100	0xba539f5b	-0.0008072757
101	0x3e20bd79	0.15697278
102	0xbd75b694	-0.059988573
103	0x3d9b5bf8	0.07585901
104	0xbdcd9b45	-0.10039381
105	0xbc37dc63	-0.011221978
106	0x3df6e6f8	0.120557725
107	0x3cdcc642	0.026950005
108	0xbd66fde4	-0.056394473
109	0xbe07cca1	-0.13261653
110	0xbe231248	-0.15924942
111	0xbe17fe87	-0.14843188
112	0xbe49545e	-0.1966109
113	0xbdeb09f9	-0.114765115
114	0xbe42bf67	-0.19018327
115	0x3e3cd79c	0.18441623
116	0xbe3c690f	-0.18399452
117	0x3e47c84c	0.19510001
118	0xbe05501d	-0.13018842
119	0x3c459695	0.012059827
120	0xbcbc0fdf	-0.022956787
121	0x3d1b67fb	0.03794096
122	0x3d790880	0.06079912
123	0x3d9143a1	0.07092977
124	0xbcc19ac8	-0.023633376
125	0x3d5fcbc9	0.054637704
126	0xbcf0dba3	-0.029401606
127	0x3e48c978	0.19608104
128	0x3e44c742	0.19216636
129	0x3e45da18	0.19321477
130	0x3e38b142	0.18036368
131	0x3db7e92b	0.0898002
132	0xbe1b29b1	-0.15152623
133	0xbc86d2fe	-0.01645803
134	0xbdd5063c	-0.1040158
135	0xbdc758c8	-0.097337306
136	0x3e43ee86	0.19133958
137	0xbbe960af	-0.0071221213
138	0xbe218923	-0.1577497
139	0x3da25bb4	0.07927647
140	0x3d75fb81	0.060054306
141	0x3d92e37a	0.07172294
142	0x3d5c6c59	0.053814266
143	0x3e037155	0.12836201
144	0x3d1f0157	0.038819637
145	0x3e3fbe25	0.18724878
146	0x3e201ced	0.15636034
147	0x3de9b4f9	0.11411471
148	0xbda0488a	-0.07826336
149	0x3e4ca10e	0.19983312
150	0x3e4da5a3	0.20082717
151	0xbda5da64	-0.08098295
152	0x3cb83ba4	0.022489376
153	0xbe27e69b	-0.16396563
154	0x3db63511	0.0889684
155	0xbc8cc7f0	-0.017185181
156	0xbe2c80e1	-0.16846038
157	0xbc7be287	-0.015373833
158	0xbe03f595	-0.12886651
159	0xbddf2ab0	-0.10896814
160	0xbe3e3d64	-0.18578106
161	0xbe173ec6	-0.1477004
162	0x3de1592f	0.110033385
163	0x3cd1b9d2	0.025601301
164	0x3e2ce30a	0.16883484
165	0x3dcc56b0	0.09977472
166	0xbd88101b	-0.06643697
167	0x3e437e06	0.19091043
168	0xbe00984c	-0.12558097
169	0x3e274df4	0.1633833
170	0xbd8c4a53	-0.06850114
171	0xbd8cb4bf	-0.06870412
172	0xbdca8359	-0.09888334
173	0xbbdd3e63	-0.006751822
174	0x3de7e53b	0.11323019
175	0xbd91140b	-0.07083901
176	0x3e0e899f	0.13919686
177	0xbdc842b8	-0.097783506
178	0x3e20687c	0.15664858
179	0x3e3d4eed	0.18487139
180	0xbe018842	-0.12649634
181	0x3ca3c7ec	0.019992791
182	0x3e2177fb	0.15768425
183	0xbbdf1890	-0.006808348
184	0xbe232325	-0.15931375
185	0xbad70a2a	-0.0016406227
186	0xbe0e36cb	-0.1388809
187	0xbd104479	-0.03522155
188	0x3e293ee7	0.16527902
189	0x3e13873b	0.14407055
190	0x3e14ebd6	0.1454309
191	0xbdf89c48	-0.12139183
192	0xbde0c811	-0.1097566
193	0x3bbd37f1	0.005774491
194	0x3e067854	0.13131839
195	0xbe16d8ed	-0.14731188
196	0xbddc7dca	-0.1076618
197	0xbe4b82d8	-0.19874132
198	0x3dd2ab88	0.10286623
199	0xbe0370f8	-0.12836063
200	0x3d89fc1f	0.067375414
201	0xbe129112	-0.14313152
202	0xbd618c58	-0.055065483
203	0xbe4c5f0e	-0.19958135
204	0xbe0f6cbb	-0.14006321
205	0xbce4d11f	-0.027931748
206	0xbdada0b3	-0.084779166
207	0x3d65d0cc	0.056107327
208	0xbdf2ca57	-0.118549995
209	0x3cbfc5a6	0.023409676
210	0xbca51541	-0.020151736
211	0x3ab68a70	0.0013926756
212	0x3dcfd922	0.10148837
213	0xbe0a0aeb	-0.13480727
214	0xbd78def3	-0.060759496
215	0xbde1ba6a	-0.11021884
216	0x3d176bfd	0.03696822
217	0x3defb3fb	0.117042504
218	0xbdef97e5	-0.116988935
219	0x3df33158	0.11874646
220	0x3d8bd037	0.06826823
221	0x3db1e297	0.08685797
222	0xbe3ce057	-0.18444954
223	0xbe28b3db	-0.1647486
224	0xbc7c300f	-0.015392317
225	0xbe351abf	-0.17685984
226	0xbe3d6c6a	-0.18498388
227	0xbdddbe8b	-0.10827359
228	0xbc92dd5c	-0.017927818
229	0x3cf1e27c	0.029526941
230	0x3e145d05	0.14488609
231	0xbe26a51a	-0.16273919
232	0xbd8df171	-0.06930817
233	0x3e3d0b21	0.18461277
234	0xbe41a9fe	-0.18912503
235	0xbe392479	-0.1808032
236	0x3d882fa9	0.066497155
237	0xbdbab73b	-0.0911698
238	0x3ddb21fc	0.106998414
239	0x3e2d6fe9	0.16937222
240	0xbd095205	-0.033525486
241	0xbe245a0d	-0.16049977
242	0xbb0dd4c3	-0.0021641708
243	0xbd1d58f6	-0.038414918
244	0xbc6f2c1b	-0.014597918
245	0xbd1788b6	-0.036995612
246	0x3e10eaf3	0.14152126
247	0x3e41e5a2	0.18935254
248	0x3e117472	0.14204577
249	0x3db3f334	0.08786622
250	0x3e0bf830	0.13668895
251	0xbe0cfffd	-0.13769527
252	0xbd2629a4	-0.040567055
253	0x3da83cb2	0.08214702
254	0x3d820815	0.06349198
255	0x3e376400	0.1790924

fc2.weight f4 [256, 256]
0	0xbd0b9390	-0.034076273
1	0x3e9762df	0.2956762
2	0xbdcedee9	-0.101011105
3	0xbe5e579f	-0.21713112
4	0x3dc54efd	0.096342064
5	0xbcdcf761	-0.026973428
6	0x3e64e761	0.22353889
7	0x3eb89ab5	0.36055532
8	0xbd901759	-0.07035703
9	0xbd1e7af8	-0.03869149
10	0x3d76de77	0.060270753
11	0x3dc02cab	0.0938352
12	0xbc994ae6	-0.018712472
13	0x3cfe2ba2	0.031026665
14	0xbe025d3f	-0.12730883
15	0xb9898378	-0.00026228628
16	0xbebb2aca	-0.36556083
17	0xbd223338	-0.039599627
18	0xba745eef	-0.00093220075
19	0x3e0d66e6	0.13808784
20	0x3d2d8e5c	0.042372093
21	0xbdb40a81	-0.08791066
22	0xbdec9fb3	-0.11553898
23	0x3ce0190f	0.027355699
24	0x3d9c4043	0.076294445
25	0xbe301b83	-0.17197995
26	0x3d2484fa	0.04016588
27	0x3e54a8c5	0.20767505
28	0xbc4eadbb	-0.012614663
29	0x3d8d1cc5	0.06890253
30	0x3e1bbb7e	0.15208241
31	0x3baf1068	0.005342532
32	0x3d74708e	0.059677653
33	0x3c9c9d70	0.01911804
34	0x3ead2bb0	0.33822393
35	0xbdc8c5d4	-0.09803358
36	0xbe33ce01	-0.17559053
37	0x3d43c899	0.047798727
38	0xbe01105b	-0.12603895
39	0x3dd7a703	0.10529902
40	0xbd271726	-0.04079356
41	0xbeb66996	-0.3562743
42	0x3df32ce5	0.11873797
43	0xbd9cdc85	-0.07659248
44	0x3d1cb750	0.038260758
45	0x3e4b6e47	0.19866286
46	0x3e0e3f7c	0.13891405
47	0xbbb5323c	-0.00552967
48	0x3dac51c5	0.08414034
49	0xbc2acba8	-0.010424532
50	0x3e83092a	0.2559293
51	0x3e534613	0.206322
52	0xbe06cfaf	-0.13165163
53	0x3b626f36	0.003455115
54	0x3e8cffc9	0.275389
55	0x3daa70c3	0.08322289
56	0x3d41cca0	0.047314286
57	0xbde3a434	-0.11115304
58	0x3cc7d80d	0.024395013
59	0x3e04d4d4	0.12971812
60	0x3c9af836	0.018917184
61	0x3c2f48e0	0.010698527
62	0xbe8efb3e	-0.27926058
63	0x3e365985	0.17807586
64	0xbe36b16e	-0.17841122
65	0xbdb72a3d	-0.08943603
66	0xbedb2c89	-0.42807415
67	0xbd8a351d	-0.06748412
68	0x3dd1b950	0.10240424
69	0x3da3372e	0.07969509
70	0x3cc55eae	0.024092998
71	0xbe43c16c	-0.19116753
72	0x3ce6ddda	0.028181959
73	0x3ea45fec	0.32104433
74	0xbdde06e0	-0.10841155
75	0xbedd3cb3	-0.43210372
76	0x3da5182b	0.0806125
77	0x3cfa581d	0.030559594
78	0xbdf7cd99	-0.120997615
79	0x3e06882f	0.13137887
80	0xbdd6ea40	-0.104938984
81	0x3da65beb	0.08123001
82	0x3cb99baa	0.022657234
83	0x3e20b01f	0.15692185
84	0xbeb45b56	-0.35225934
85	0x3e095046	0.13409528
86	0xbe81afa0	-0.25329304
87	0xbe7ac3a0	-0.24488688
88	0x3e01dd31	0.12682034
89	0x3d4d20b1	0.050080005
90	0x3e3797be	0.17928979
91	0xbe617279	-0.22016324
92	0xbe443918	-0.19162405
93	0x3db58743	0.0886369
94	0x3e10e69b	0.14150469
95	0x3d190490	0.037357867
96	0xbe92f30a	-0.2870105
97	0x3d51da00	0.05123329
98	0xbc982ece	-0.018577006
99	0x3e259a8e	0.16172239
100	0xb8c20fc0	-9.2535745e-05
101	0x3dfd69e3	0.12373712
102	0xbe073824	-0.1320501
103	0xbed8346b	-0.42227492
104	0x3e86d01a	0.26330644
105	0xb8a23a38	-7.735606e-05
106	0x3eacf0bd	0.3377742
107	0x3cc3a2ee	0.023881402
108	0x3e2e6103	0.17029195
109	0x3d80d27b	0.06290146
110	0x3d2ed8cb	0.04268722
111	0x3b39fbdf	0.0028378887
112	0x3b9bf96e	0.004759959
113	0x3d6f08a0	0.058357835
114	0x3c9f5d55	0.019453684
115	0xbd8e9db1	-0.06963671
116	0x37a0d886	1.9174313e-05
117	0x3e6fd538	0.2342118
118	0xbdda9881	-0.10673619
119	0xbe721990	-0.23642564
120	0x3be16537	0.006878521
121	0xbd66d42d	-0.05635469
122	0x3e32adc4	0.17449099
123	0xbe4eab4b	-0.2018253
124	0xbeabc486	-0.33548373
125	0xbbbe8680	-0.0058143735
126	0xbdd23302	-0.10263635
127	0xbea1998d	-0.31562462
128	0x3b4673e5	0.003028148
129	0x3ea2d25e	0.31801122
130	0xbe009f99	-0.12560882
131	0xbdd80973	-0.10548677
132	0xbb4b3c1e	-0.0031011174
133	0xbe6d9b20	-0.23203707
134	0xbbe65360	-0.007028982
135	0x3d77698f	0.060403403
136	0xbd8f167f	-0.06986713
137	0x3dfe435c	0.124151915
138	0x3d69f088	0.057114154
139	0x3e3cf23e	0.18451783
140	0xbd5efdaa	-0.05444113
141	0x39f194c8	0.00046077953
142	0xbe409188	-0.18805516
143	0x3c3733bd	0.011181769
144	0xbde3204f	-0.11090147
145	0x3cfa7f74	0.030578353
146	0x3d14fae0	0.036372066
147	0x3e35fe3c	0.17772764
148	0xbe8c75bd	-0.27433577
149	0xbe07a3a0	-0.13246012
150	0xbe50bc39	-0.20384301
151	0xbd501d36	-0.050809108
152	0xbd995e12	-0.074886456
153	0xbf053173	-0.5202858
154	0xbe2e68ed	-0.17032214
155	0x3d9b180a	0.075729445
156	0xbd409eb3	-0.047026347
157	0xbd84f7bb	-0.06492563
158	0xbd9a7f58	-0.0754382
159	0x3d7a5176	0.061112843
160	0x3e58cd2f	0.21172021
161	0x3d5b5307	0.053545978
162	0x3e971bcd	0.29513398
163	0x3ebb6212	0.3659826
164	0xbd19ec5d	-0.03757893
165	0x3cc3adb9	0.023886548
166	0x3c48525d	0.012226668
167	0x3e302192	0.17200306
168	0xbd995901	-0.07487679
169	0x3dbecbdb	0.09316226
170	0xbc7d2335	-0.015450289
171	0xbe17e686	-0.14834031
172	0xbe901388	-0.281399
173	0xbd9c64a0	-0.0763638
174	0xbe1750b6	-0.14776883
175	0x3dfe20aa	0.12408574
176	0x3e1eae4c	0.15496176
177	0xbe3e5a89	-0.18589224
178	0x3d78d98b	0.06075434
179	0xbe7efd85	-0.24901398
180	0xbdab1b95	-0.0835487
181	0xbe82776c	-0.25481737
182	0x3e152a72	0.14566973
183	0x3d08c533	0.03339119
184	0xbeee383d	-0.4652728
185	0x3e330eac	0.17486066
186	0x3e044a1a	0.12918893
187	0xbefe9e69	-0.49730232
188	0xbf02d824	-0.51111054
189	0xbe6714d2	-0.22566536
190	0x3d79ad10	0.06095606
191	0xbe254943	-0.16141228
192	0xbe41a66b	-0.1891114
193	0xbd905325	-0.070471086
194	0xbd5c5b1d	-0.05379783
195	0x3e60667d	0.21914096
196	0xbdb452cb	-0.08804854
197	0x3e0cb681	0.13741495
198	0x3d770595	0.060308058
199	0x3dd2df44	0.10296491
200	0xbe86b505	-0.26309982
201	0xbc292d73	-0.010325777
202	0x3e2d8aae	0.16947433
203	0xbe199e3a	-0.15001765
204	0xbd4d4bdc	-0.050121173
205	0xbdc6ccb6	-0.09707014
206	0x3d9608f3	0.07325926
207	0x3e0c9067	0.1372696
208	0x3ccb7527	0.024836136
209	0x3e491b32	0.1963928
210	0xbd8056f2	-0.062665835
211	0x3d92cc86	0.07167916
212	0xbdb2ffb8	-0.08740181
213	0xbe8d53e8	-0.27603078
214	0x3e6c4346	0.23072538
215	0x3ce31e10	0.027724296
216	0x3d32f479	0.04369018
217	0x3e0cbcca	0.13743892
218	0xbe4a5e8d	-0.19762631
219	0x3e77d02b	0.24200504
220	0xbecdaf3e	-0.40172762
221	0x3e014f6f	0.12627958
222	0x3e0c1dc2	0.13683227
223	0x3cd6252b	0.02614077
224	0xbc60862c	-0.013703864
225	0xbddbe347	-0.10736709
226	0xbc842b37	-0.016133888
227	0x3cdcec55	0.02696816
228	0xbde4a957	-0.111651115
229	0xbeac854c	-0.33695447
230	0xbe4487f7	-0.19192491
231	0x3dcf57ec	0.10124192
232	0xbd4f826b	-0.050661486
233	0xbdd4a980	-0.10383892
234	0xbd469f34	-0.04849167
235	0xbf6d254f	-0.92635053
236	0xbea7a395	-0.3274199
237	0x3d2eb457	0.042652454
238	0x3d8bc466	0.068245694
239	0x3d3aade4	0.04557599
240	0x3dba06d0	0.09083331
241	0xbcbc9ed3	-0.023024952
242	0x3d3cc3ec	0.046085283
243	0xbe6014e6	-0.21882972
244	0x3d0aafac	0.03385894
245	0x3e10cc1c	0.14140362
246	0x3c950af9	0.018193709
247	0xbd356a51	-0.044290844
248	0xbda165d2	-0.07880749
249	0x3c18baec	0.009321909
250	0xbd078a97	-0.033091154
251	0xbe041950	-0.12900281
252	0xbb36f78e	-0.002791855
253	0x3e4d576b	0.20052879
254	0xbde6359d	-0.11240695
255	0xbd473af0	-0.04864019

fc2.bias f4 [256]
0	0x3c85941d	0.016305977
1	0x3d809f45	0.06280378
2	0x3e20dd56	0.15709433
3	0x3d950a96	0.0727741
4	0xbdb69a48	-0.089161456
5	0x3cb24153	0.021759665
6	0xbc499b62	-0.012305113
7	0xbc8767cb	-0.016528985
8	0xbd8208cf	-0.06349336
9	0xbd9ac29d	-0.07556651
10	0xb8899245	-6.559914e-05
11	0x3d7b3d60	0.06133783
12	0x3d6f4038	0.058410853
13	0x3e157bf2	0.14598063
14	0xbd7c67dc	-0.061622486
15	0xbd3e1be4	-0.046413317
16	0x3da61a75	0.08110515
17	0xbdd67095	-0.10470692
18	0x3c07bb3f	0.008284389
19	0x3d96ef37	0.07369845
20	0x3d6b28c8	0.05741194
21	0x3ddb35a8	0.107035935
22	0x3cd18091	0.025574
23	0x3d676f0c	0.056502387
24	0x3d256f58	0.04038939
25	0xbdfcef2e	-0.123503074
26	0x3dfe5fbb	0.12420603
27	0xbd59f369	-0.05321065
28	0xbd8895e0	-0.066692114
29	0x3c664c2e	0.014056249
30	0xbc4fbfe9	-0.012680032
31	0x3e02e5fa	0.12783042
32	0xbc604d37	-0.013690284
33	0xbda38089	-0.079835005
34	0x3d0fd06f	0.035110887
35	0x3c9ad735	0.018901447
36	0xbd4fcb12	-0.050730772
37	0x3d941c21	0.07231928
38	0x3d938d4a	0.07204683
39	0x3d869417	0.06571215
40	0xbc739a18	-0.014868282
41	0xbd8af274	-0.067845255
42	0x3d564562	0.052312262
43	0xbcdf682f	-0.027271358
44	0x3e37a2ea	0.1793324
45	0x3e1566ad	0.14589949
46	0x3d22241f	0.03958523
47	0x3df81892	0.121140614
48	0xbe02e3a3	-0.12782149
49	0xbd4c1062	-0.04982031
50	0xbe1e052c	-0.1543166
51	0xbbee4b3a	-0.0072721513
52	0xbc34ccd4	-0.011035163
53	0xbe37e61e	-0.17958876
54	0x3cffc99e	0.031224068
55	0xbcfe16d9	-0.031016754
56	0x3d60373c	0.054740176
57	0xbe87c42d	-0.26516858
58	0x3d440a48	0.047861367
59	0xbd44339b	-0.047900777
60	0xbd413433	-0.04716892
61	0xbe457e67	-0.192865
62	0xbdc29ca1	-0.09502531
63	0x39a1459a	0.0003076017
64	0x3ce2f424	0.027704306
65	0x3d7f7b37	0.062373366
66	0x3dce838e	0.10083686
67	0xbcb486b7	-0.022036893
68	0xbd03cdf7	-0.032178845
69	0xbd4d9e7a	-0.050199963
70	0x3da395a4	0.07987526
71	0x3cdd25d2	0.026995573
72	0xbd2a2382	-0.04153777
73	0x3d624de3	0.05525006
74	0xbd19d24d	-0.037554074
75	0xbdf5dda1	-0.12005163
76	0x3dd48c20	0.10378289
77	0xbd2402b0	-0.040041625
78	0xbe50750b	-0.20357148
79	0xbe15c809	-0.14627089
80	0xbdd19e17	-0.10235231
81	0x3d9ed7e2	0.0775602
82	0xbe156e79	-0.14592923
83	0x3c9d532c	0.019204699
84	0x3d867fcd	0.06567345
85	0xbd309a99	-0.043116186
86	0xbdc279b9	-0.09495873
87	0x3dbc77dc	0.09202549
88	0x3d403ccf	0.04693299
89	0x3d263485	0.04057743
90	0x3b582a8c	0.0032984344
91	0x3d782695	0.06058367
92	0x3d375448	0.04475811
93	0x3c8c9e51	0.017165335
94	0xbc07f2c1	-0.008297623
95	0x3ddac9c9	0.10683019
96	0xbea064d0	-0.31326914
97	0xbcd3ab84	-0.025838621
98	0xbe34960a	-0.1763536
99	0xbddcbf5f	-0.10778689
100	0xbd8dc20f	-0.06921779
101	0x3e5bd399	0.21467437
102	0x3d0c7cce	0.03429871
103	0x3e0c41b7	0.13696943
104	0xbd973afa	-0.07384296
105	0x3d67adb2	0.056562133
106	0xbe1e6c62	-0.15471032
107	0xbd9ea34d	-0.07745991
108	0xbcebe280	-0.028794527
109	0x3de778c5	0.11302332
110	0xbcd2bccc	-0.025724791
111	0xbd8b4241	-0.06799746
112	0xbe3b9d07	-0.1832162
113	0x3d321f96	0.043487154
114	0xbd0739be	-0.03301405
115	0x3e29e0e6	0.16589698
116	0xbd442f86	-0.047896884
117	0x3d9a0b22	0.07521655
118	0x3c3d92ae	0.011570616
119	0xbb132af8	-0.0022456031
120	0x3e39475a	0.18093625
121	0xbe474073	-0.19458179
122	0x3dba4554	0.090952545
123	0xbab590d5	-0.0013852367
124	0xbdc164cb	-0.09443053
125	0xbdfca5b3	-0.12336292
126	0xbd1a361e	-0.037649266
127	0x3d24e7f1	0.04026026
128	0xbe75d59e	-0.2400727
129	0x3da90e47	0.08254676
130	0xbe182006	-0.14855966
131	0xbdfd6dd1	-0.123744614
132	0xbc85c19c	-0.016327672
133	0x3c3ec00d	0.011642468
134	0x3c2259c4	0.009909097
135	0xbd129aa8	-0.035792023
136	0xbe09b49b	-0.13447802
137	0xbc38e950	-0.011286095
138	0x3ab1491e	0.0013525819
139	0xbdc18a92	-0.09450258
140	0x3d50b40e	0.050952964
141	0x3d9e3489	0.07724864
142	0x3d5b61b7	0.053559985
143	0xbb9af62f	-0.0047290544
144	0xbcbd9929	-0.023144322
145	0xbc56afe0	-0.013103455
146	0x3dbf9c83	0.09356024
147	0xbe67e47f	-0.22645758
148	0x3df43a0b	0.11925133
149	0xbe2601b7	-0.16211592
150	0xbcb6d2e9	-0.022317367
151	0x3df6f391	0.12058175
152	0xbd06abe1	-0.03287876
153	0x3dda86ce	0.10670243
154	0xbb82cfcf	-0.003992058
155	0xbdc037f9	-0.09385676
156	0xbd9989ed	-0.074970104
157	0x3db6c7f1	0.089248545
158	0x3d3e2042	0.046417482
159	0xbe288558	-0.16457117
160	0xbe440fa9	-0.19146599
161	0x3d99141b	0.07474538
162	0xb9576f16	-0.0002054538
163	0xbdfab1b0	-0.122409225
164	0xbded2d5d	-0.11580918
165	0x3de37a46	0.11107306
166	0xbd95e35d	-0.07318757
167	0x3df68a66	0.12038116
168	0xbdd2ec84	-0.10299018
169	0x3c5b5b07	0.013388402
170	0x3c475600	0.0121665
171	0xbd38ae06	-0.045087837
172	0x3cae3775	0.021266678
173	0xbdd46a21	-0.10371805
174	0xbcb107e9	-0.021610217
175	0x3d76a603	0.060216915
176	0xbd3c1dc1	-0.045926813
177	0x3e0197b1	0.12655522
178	0x3d7faf73	0.06242318
179	0x3d40bcaf	0.047054943
180	0x3d34a99f	0.044107076
181	0x3e4af932	0.19821623
182	0xbd7cb1a4	-0.06169285
183	0x3d975b4f	0.073904626
184	0xbd852aa8	-0.06502277
185	0x3cbd3e48	0.023100987
186	0xbdf2563c	-0.11832854
187	0xbd3117dd	-0.04323565
188	0xbe30d6d3	-0.17269449
189	0x3ca8c97f	0.020603893
190	0x3d53eefb	0.05174158
191	0x3d84a9ec	0.064777225
192	0xbd8b4172	-0.06799592
193	0x3cb0b8f2	0.021572564
194	0xbd4c8493	-0.04993112
195	0xbe06ea58	-0.13175333
196	0x3ccd8e17	0.025092168
197	0xbdcf951a	-0.10135861
198	0xbdebb42f	-0.11508977
199	0x3ab66614	0.001391592
200	0x3dd94c9d	0.10610316
201	0xbbe27d6f	-0.0069119255
202	0x3d4cd8a9	0.05001131
203	0x3c24df43	0.010062995
204	0xbd41084f	-0.047127064
205	0xbbfa21d7	-0.0076334286
206	0xbc0931c6	-0.008373683
207	0xbd43d9d5	-0.047815163
208	0xbe303a1c	-0.17209667
209	0xbd11b5d9	-0.035573814
210	0x3d043a1d	0.032281984
211	0x3cc9ced9	0.024634765
212	0xbc56d3ee	-0.013112051
213	0x3b51f6fc	0.0032038083
214	0x3cf89f7c	0.030349486
215	0xbe39a961	-0.18131019
216	0xbdbf8b98	-0.09352797
217	0xbe206103	-0.15662007
218	0x3dfcfa25	0.12352399
219	0x3cec67b4	0.028858043
220	0x3dc70bb0	0.09719026
221	0xbcc430a6	-0.023948979
222	0x3de865a2	0.1134751
223	0xbec6dfa4	-0.388425
224	0xbc563bea	-0.013075808
225	0x3cdd892d	0.02704295
226	0xbc9f59be	-0.019451972
227	0x3e2f500a	0.17120376
228	0xbd9c6301	-0.07636071
229	0x3da4bee7	0.08044224
230	0x3c1b8d29	0.009494104
231	0x3d9c47a9	0.076308556
232	0xbdfc58b1	-0.12321604
233	0x3c37993d	0.011205968
234	0xbd2826b8	-0.04105255
235	0x3d045366	0.032306097
236	0x3c4cc9ea	0.012499312
237	0xbcdc588a	-0.026897687
238	0x3e3c2aaf	0.18375657
239	0x3d87c521	0.06629396
240	0x3e1844a3	0.14869933
241	0x3df6412f	0.120241515
242	0x3d7547f3	0.05988307
243	0xbd8a8b8c	-0.06764898
244	0x3d85ccf6	0.06533234
245	0x3de00694	0.10938755
246	0x3e59218e	0.21204206
247	0xbdbe5b88	-0.09294802
248	0x3c41a7c4	0.011819784
249	0xbd8f6375	-0.07001392
250	0x3e37a077	0.17932306
251	0xbdb5410d	-0.08850298
252	0xbb2f47e0	-0.0026745722
253	0xbce90762	-0.028445903
254	0xbcd9fd75	-0.026610116
255	0x3d33c4aa	0.043888725

fc3.weight f4 [2, 256]
0	0xbf19c9b8	-0.60073423
1	0xbe973979	-0.29536036
2	0xbed20095	-0.4101607
3	0xbe92b6e3	-0.28655156
4	0xbec02c7c	-0.3753394
5	0x3eabf13b	0.33582482
6	0x3ea3267f	0.31865308
7	0x3f0aea3f	0.5426368
8	0x3e94ab8d	0.29037133
9	0xbf3d78ef	-0.74012655
10	0xbf1740ab	-0.5908305
11	0xbe831c1d	-0.25607386
12	0x3ed022a8	0.4065144
13	0x3efd82b5	0.49513784
14	0xbf350ca1	-0.70722395
15	0xbee15edc	-0.44017684
16	0xbf03861c	-0.5137651
17	0x3edef940	0.43549538
18	0xbf164088	-0.58692217
19	0x3dd94707	0.106092505
20	0xbf66212e	-0.8989438
21	0x3f07fb29	0.53117615
22	0xbf3a80a4	-0.7285254
23	0x3f739243	0.9514505
24	0x3f2b4fef	0.66918844
25	0xbdbabd46	-0.09118132
26	0xbf1d234f	-0.61382
27	0x3f88ca47	1.068673
28	0x3f325430	0.6965971
29	0xbf0338d2	-0.51258576
30	0xbeb31827	-0.34979364
31	0x3ec4f960	0.38471508
32	0xbeb32f8d	-0.34997216
33	0xbe37bd89	-0.17943396
34	0xbec60980	-0.38679123
35	0x3f0c7af2	0.548751
36	0xbe798830	-0.24368358
37	0x3dc7ef1b	0.097624026
38	0xbd169fd9	-0.036773536
39	0xbe05b327	-0.13056622
40	0x3ec03b21	0.37545112
41	0xbe8b5136	-0.27210397
42	0xbc84cb27	-0.016210152
43	0xbec5936d	-0.3858904
44	0x3e9be66b	0.30449232
45	0xbe9a8c1f	-0.3018503
46	0x3d86057d	0.065440156
47	0xbf19f248	-0.60135317
48	0x3f04f381	0.5193406
49	0x3e85cf7a	0.26134855
50	0x3ef78572	0.48343998
51	0xbf21cca3	-0.63202876
52	0x3e31d14e	0.17365
53	0x3da8df5c	0.082457274
54	0xbf6b6568	-0.9195161
55	0xbe71961a	-0.23592415
56	0x3f03b1b4	0.5144303
57	0xbe14644f	-0.1449139
58	0x3eb9c942	0.3628636
59	0xbf97c1ab	-1.1855978
60	0xbf05b0c7	-0.52222866
61	0xbeaa43aa	-0.3325475
62	0x3f62d917	0.886125
63	0x3e437d57	0.19090782
64	0xbec31351	-0.38100675
65	0xbf45bfb6	-0.7724565
66	0xbf09b7f8	-0.5379634
67	0xbeb5257c	-0.3538016
68	0x3ef8b098	0.4857223
69	0xbefae010	-0.4899907
70	0x3efa5ca2	0.48898798
71	0xbee695d0	-0.45036173
72	0xbe7a0667	-0.24416505
73	0xbeef67a7	-0.46758768
74	0x3e43d21c	0.19123119
75	0x3ebee60f	0.37284896
76	0xbe82a488	-0.25516152
77	0x3f5bf115	0.85914737
78	0x3ea3ec3a	0.32016164
79	0xbf737068	-0.95093393
80	0x3f293a6c	0.6610477
81	0x3e9e50c2	0.30920988
82	0x3ecdaf1c	0.4017266
83	0xbf430cf6	-0.7619165
84	0xbdddccb2	-0.10830058
85	0x3ea401bb	0.3203257
86	0xbe97c9fd	-0.29646292
87	0x3f10e2e0	0.56596184
88	0x3f7058af	0.9388532
89	0xbed1b40e	-0.40957683
90	0xbf0b349d	-0.54377156
91	0x3ddbacc7	0.10726314
92	0x3f59efb1	0.85131365
93	0xbf0040d6	-0.5009893
94	0xbef9e04a	-0.4880393
95	0x3eeb4ce4	0.459571
96	0x3b405d26	0.0029352396
97	0x3e3b4e5c	0.1829161
98	0x3eecd735	0.4625794
99	0x3e465948	0.19369996
100	0x3d4f5b6e	0.050624304
101	0x3ec33c79	0.38132074
102	0xbd9acf2b	-0.075590454
103	0x3eb41f24	0.35180008
104	0xbf5b4a28	-0.8566003
105	0x3ed1cf57	0.409785
106	0x3f1261f3	0.5718071
107	0xbce74ad4	-0.028233923
108	0xbd05a689	-0.032629523
109	0xbf467ea1	-0.7753697
110	0xbf0fe968	-0.56215525
111	0xbf089592	-0.53353226
112	0x3ca8e1b1	0.02061543
113	0x3eb0d593	0.34537944
114	0x3e23f56e	0.16011593
115	0xbee9815e	-0.45606512
116	0xbf280923	-0.6563894
117	0xbe7080b8	-0.23486602
118	0xbed83dd6	-0.42234677
119	0xbe8f9b4b	-0.28048167
120	0x3eec3a92	0.46138436
121	0x3f180c7d	0.59394056
122	0xbf1b412d	-0.60646325
123	0xbd7266d5	-0.0591801
124	0x3eff04f5	0.4980847
125	0x3ed0b0d5	0.40759912
126	0x3e5b4e00	0.21416473
127	0xbf2ca4a0	-0.674387
128	0x3d2ff455	0.042957623
129	0xbec52cbe	-0.38510698
130	0xbed90136	-0.42383736
131	0x3ed8c420	0.42337132
132	0xbec9c08c	-0.39404714
133	0x3ef773b1	0.48330453
134	0xbf5e161c	-0.86752486
135	0x3e4a8f55	0.1978124
136	0x3e82684b	0.25470194
137	0xbd0f2a17	-0.03495225
138	0x3e289d45	0.16466244
139	0xbb337e2f	-0.0027388444
140	0xbd64f773	-0.05590005
141	0xbf024b9c	-0.5089662
142	0xbc695723	-0.014241966
143	0xbe0b1034	-0.135804
144	0xbe58ad2e	-0.21159813
145	0x3d48cc57	0.049023
146	0x3e9a8627	0.30180475
147	0x3e6dde68	0.23229373
148	0x3e919f8e	0.28442043
149	0xbbd6331e	-0.0065368554
150	0xbecc277f	-0.39873883
151	0x3e507eb5	0.20360835
152	0xbf211628	-0.6292443
153	0x3cff81ab	0.03118976
154	0xbf6fa6c0	-0.93613815
155	0x3b1fbc5a	0.002437374
156	0xbf128da1	-0.5724736
157	0xbeefb269	-0.46815804
158	0x3ea87b11	0.32906392
159	0x3e9e5a74	0.30928385
160	0x3f134404	0.5752566
161	0x3ec6c6d1	0.3882356
162	0xbef19360	-0.4718275
163	0x3f0f7bb3	0.56048125
164	0x3eb69d61	0.35666946
165	0x3f38a4cf	0.7212648
166	0xbf1171a7	-0.56814045
167	0xbf2495a5	-0.6429084
168	0x3e45edb0	0.19328952
169	0xbf040231	-0.51565844
170	0xbe1d1a0f	-0.15341972
171	0x3c72b4a8	0.01481358
172	0x3f327920	0.6971607
173	0x3e29c5bd	0.16579337
174	0xbf901f9d	-1.1259648
175	0xbe918a45	-0.28425804
176	0x3ed86e71	0.4227176
177	0x3f1f428a	0.62210906
178	0x3f433645	0.76254684
179	0xbd5627fd	-0.05228423
180	0xbe1ef6bc	-0.15523809
181	0x3f1fbdcb	0.62398976
182	0xbe305401	-0.17219545
183	0x3e4d7b9a	0.20066682
184	0x3eed941a	0.46402055
185	0x3dec991e	0.11552642
186	0x3f11ff5f	0.5703029
187	0xbf00d48f	-0.5032434
188	0x3f0f1b06	0.5590061
189	0xbb6f2e36	-0.003649605
190	0x3f047480	0.51740265
191	0x3da27c97	0.0793392
192	0xbeddbe89	-0.4330943
193	0xbdd17262	-0.10226895
194	0x3f3291a7	0.697535
195	0x3e90ed27	0.28305933
196	0xbf0b4efb	-0.5441739
197	0xbf2b5cae	-0.6693829
198	0x3f181464	0.59406114
199	0xbf14a8d8	-0.58070135
200	0x3e631a50	0.22178006
201	0x3a7eb216	0.0009715868
202	0x3e3ae0d6	0.1824983
203	0xbe3417f9	-0.1758727
204	0x3ea977de	0.33099264
205	0x3efe8b11	0.49715474
206	0xbd5c4e40	-0.053785563
207	0x3edbfbaa	0.42965442
208	0x3e161fa8	0.14660513
209	0x3f089fd4	0.5336888
210	0x3eabb58d	0.3353695
211	0x3f1533d8	0.5828223
212	0x3e3bfe05	0.1835862
213	0x3ea4b37c	0.32168186
214	0x3f4f60de	0.8100718
215	0xbf517e88	-0.81833696
216	0x3e40dd5f	0.18834446
217	0xbe6815b9	-0.22664537
218	0x3e87c02a	0.26513797
219	0xbe41b51b	-0.18916743
220	0xbeaf6ef2	-0.34264332
221	0x3f009c5f	0.50238603
222	0xbe8bd4ca	-0.27310783
223	0xbecf0471	-0.40433076
224	0xbd43ded9	-0.047819946
225	0xbef41255	-0.47670236
226	0xbed84978	-0.42243552
227	0x3ea08b95	0.31356493
228	0x3e617cff	0.22020338
229	0x3eb85911	0.36005452
230	0xbd015dfe	-0.03158378
231	0x3e58a592	0.2115691
232	0xbf3e8d3b	-0.7443425
233	0xbee18d93	-0.44053325
234	0xbe65c016	-0.22436556
235	0xbf489359	-0.78349835
236	0xbca92a3c	-0.020650022
237	0xbea94b00	-0.33065033
238	0x3ce17f27	0.027526451
239	0x3f1b21e2	0.60598576
240	0x3ea3e051	0.32007077
241	0x3efe02db	0.49611554
242	0xbf68ca77	-0.90933937
243	0xbf0341ce	-0.51272285
244	0xbf16bb50	-0.58879566
245	0xbf52370e	-0.82115257
246	0x3e12d96b	0.14340751
247	0x3d928eb3	0.07156124
248	0xbb21d4fc	-0.00246936
249	0xbee745ef	-0.45170543
250	0x3f0b516f	0.5442113
251	0xbc8874a2	-0.016657177
252	0xbe242ba9	-0.1603228
253	0xbf181db0	-0.594203
254	0xbe3cc7a1	-0.18435527
255	0xbdfc5262	-0.12320401

fc3.bias f4 [2]
0	0x3c998a73	0.018742776
1	0xbcd58f64	-0.02606935

bn1.weight f4 [256]
0	0x3fada752	1.3566687
1	0x3fa15d4d	1.2606598
2	0x3f879f70	1.0595531
3	0x3f9f7a5c	1.2459216
4	0x3f90ffa7	1.1328019
5	0x3f9071bd	1.128471
6	0x3f92484c	1.1428313
7	0x3fadcd04	1.3578191
8	0x3f964c2c	1.1741996
9	0x3f92cd59	1.1468917
10	0x3f8f6d73	1.1205276
11	0x3f984449	1.1895839
12	0x3fbfa2f9	1.497161
13	0x3f86c1c9	1.0527889
14	0x3f9e785e	1.2380483
15	0x3f9c31e9	1.2202731
16	0x3fba1e37	1.4540471
17	0x3f8ac06a	1.083997
18	0x3f97d670	1.1862316
19	0x3f830f5e	1.0239065
20	0x3f99443e	1.1973951
21	0x3f96757d	1.1754605
22	0x3f759d04	0.9594271
23	0x3fafd80d	1.3737808
24	0x3fb5bd84	1.419846
25	0x3fb527d6	1.4152782
26	0x3fa47367	1.2847718
27	0x3f98cd01	1.1937562
28	0x3faef0ef	1.3667277
29	0x3f89f6e0	1.0778465
30	0x3fad575f	1.3542289
31	0x3f8de43a	1.1085274
32	0x3fba2c2c	1.454473
33	0x3f99e6f5	1.2023607
34	0x3f994b44	1.1976094
35	0x3fb63748	1.423562
36	0x3f90fbb0	1.1326809
37	0x3f92019c	1.1406741
38	0x3f99fb20	1.2029762
39	0x3f9ae74d	1.2101837
40	0x3fa0e649	1.2570277
41	0x3fb7560d	1.4323136
42	0x3fa64773	1.2990555
43	0x3f9f03a1	1.2422982
44	0x3f6d5915	0.92714053
45	0x3fa2dd78	1.2723837
46	0x3fa957a2	1.3229868
47	0x3fb3018b	1.3984846
48	0x3f829bfd	1.0203854
49	0x3f97d9f4	1.1863389
50	0x3fa0dc5f	1.2567252
51	0x3f9c726b	1.2222418
52	0x3f97c232	1.1856139
53	0x3fb02578	1.3761435
54	0x3f9ecb92	1.2405875
55	0x3f9f06f4	1.2423997
56	0x3f9d75d3	1.2301582
57	0x3f852ae6	1.0403717
58	0x3fa52a66	1.2903564
59	0x3f9394bb	1.1529764
60	0x3fb29376	1.3951252
61	0x3faca26c	1.3487067
62	0x3fcc58b7	1.5964574
63	0x3fbb00bd	1.46096
64	0x3f8ff891	1.1247731
65	0x3fa639dc	1.2986407
66	0x3fadb62a	1.3571217
67	0x3f9ff707	1.2497262
68	0x3f991ec0	1.1962509
69	0x3f9c5bb2	1.2215483
70	0x3fa32882	1.2746737
71	0x3faef379	1.3668052
72	0x3f8b975e	1.0905569
73	0x3fa121da	1.2588456
74	0x3f83b691	1.029009
75	0x3faf1f29	1.3681384
76	0x3f9750e0	1.1821556
77	0x3f895036	1.0727603
78	0x3fb23446	1.3922203
79	0x3fa55a83	1.2918247
80	0x3f9b3e4c	1.2128386
81	0x3f8d77e4	1.1052213
82	0x3f75761e	0.9588336
83	0x3fb3beda	1.4042618
84	0x3fd551a8	1.6665545
85	0x3fa09a4d	1.2547089
86	0x3f9fc620	1.2482338
87	0x3faadd84	1.3348851
88	0x3f9de2d0	1.2334843
89	0x3fa618fa	1.2976372
90	0x3fa61ac3	1.2976917
91	0x3f918477	1.136855
92	0x3fa4bae5	1.2869536
93	0x3f9aeacf	1.2102908
94	0x3f90d3b6	1.1314609
95	0x3f943e34	1.1581483
96	0x3f9010e0	1.125515
97	0x3f8b0e32	1.0863707
98	0x3f974f99	1.1821166
99	0x3fbd4e8c	1.4789596
100	0x3fa0a902	1.2551577
101	0x3f858d3d	1.0433728
102	0x3fb82000	1.4384766
103	0x3fa5a305	1.2940375
104	0x3f9dc562	1.2325861
105	0x3f918e07	1.1371468
106	0x3fa49684	1.2858434
107	0x3f8cab45	1.0989767
108	0x3fae5861	1.3620721
109	0x3f962401	1.1729738
110	0x3fb4f92a	1.4138539
111	0x3f926c80	1.1439362
112	0x3f96ec37	1.1790837
113	0x3f840035	1.0312563
114	0x3fb3a53d	1.4034802
115	0x3fa28f81	1.2700044
116	0x3fb2f992	1.3982413
117	0x3f956438	1.1671209
118	0x3f8e55ff	1.1119994
119	0x3f828986	1.0198219
120	0x3faa08b9	1.3283912
121	0x3f93519d	1.1509281
122	0x3fa659d5	1.2996165
123	0x3f950a80	1.1643829
124	0x3fa0856a	1.2540715
125	0x3fb07761	1.3786432
126	0x3f92d8ba	1.147239
127	0x3fa44383	1.2833103
128	0x3f8e24cb	1.1104978
129	0x3f990399	1.1954223
130	0x3f976e1d	1.1830479
131	0x3f90fe6d	1.1327645
132	0x3f6c4f98	0.9230895
133	0x3fc50953	1.539347
134	0x3f9473ab	1.1597799
135	0x3fbfe34b	1.4991239
136	0x3f9cc70e	1.2248247
137	0x3fba04c5	1.4532706
138	0x3f835ff5	1.0263659
139	0x3fc1122d	1.5083672
140	0x3f834b1a	1.0257294
141	0x3fa90f91	1.3207875
142	0x3f92629d	1.1436344
143	0x3f9ebbae	1.2401025
144	0x3fca7281	1.5816194
145	0x3f84e49b	1.0382265
146	0x3fa99036	1.3247135
147	0x3f9d613a	1.2295296
148	0x3faed8a8	1.3659868
149	0x3f9c43ad	1.2208153
150	0x3fa16c39	1.2611152
151	0x3fa6a01a	1.3017609
152	0x3f86a24d	1.051828
153	0x3fb33b77	1.4002522
154	0x3f9db563	1.232098
155	0x3f83a3de	1.0284383
156	0x3f95d92e	1.1706903
157	0x3fa98659	1.3244125
158	0x3f8c56ce	1.0963991
159	0x3f8d222b	1.1026052
160	0x3fc97af7	1.5740651
161	0x3f9d9e40	1.2313919
162	0x3f963281	1.1734163
163	0x3fa611a8	1.2974138
164	0x3fa5d804	1.2956548
165	0x3f8f35fb	1.1188349
166	0x3fb4adda	1.4115555
167	0x3fbc64d5	1.4718271
168	0x3f99d0ff	1.2016906
169	0x3fbe6641	1.4874955
170	0x3f9881bb	1.1914591
171	0x3f9e336e	1.2359445
172	0x3fc3fccd	1.5311524
173	0x3fa5243c	1.2901683
174	0x3faa5fb4	1.3310456
175	0x3f93a032	1.1533263
176	0x3f9f8cc0	1.2464828
177	0x3f963b7d	1.1736904
178	0x3f936ce7	1.1517609
179	0x3f97fa05	1.1873175
180	0x3fddebbe	1.7337568
181	0x3fbe5ed0	1.4872684
182	0x3f9c70a3	1.2221874
183	0x3fd4806e	1.6601694
184	0x3fa4cc48	1.2874842
185	0x3f9f45ba	1.2443154
186	0x3f9581b5	1.1680208
187	0x3fd73679	1.6813499
188	0x3fb0ff31	1.3827878
189	0x3fa91519	1.3209563
190	0x3fb49979	1.4109336
191	0x3f8fff50	1.124979
192	0x3f8d0e5d	1.1020008
193	0x3f7db9c2	0.9911157
194	0x3fa53f95	1.2910029
195	0x3f98ebfc	1.1947017
196	0x3f8e7d1c	1.113193
197	0x3f9834dc	1.1891131
198	0x3faab400	1.3336182
199	0x3fa3bcca	1.2791989
200	0x3fa0c034	1.2558656
201	0x3fa275ab	1.269216
202	0x3f98f435	1.1949526
203	0x3faecba8	1.3655901
204	0x3f84f300	1.0386658
205	0x3f97f8f3	1.1872848
206	0x3f98227e	1.1885526
207	0x3f8bd8af	1.0925502
208	0x3f9486ba	1.1603615
209	0x3fa6b032	1.302252
210	0x3f87269e	1.055866
211	0x3fab5106	1.3384101
212	0x3fa236c9	1.2672969
213	0x3fa0ec6e	1.2572153
214	0x3f99ad2e	1.2005975
215	0x3fa6bbcb	1.302606
216	0x3f8ad17f	1.0845183
217	0x3fac26da	1.3449357
218	0x3fa8744f	1.3160495
219	0x3fa0b2a6	1.2554519
220	0x3fb2b1d6	1.3960521
221	0x3fb689b6	1.4260776
222	0x3fa27d47	1.2694482
223	0x3f9a05bd	1.2033001
224	0x3f9707b8	1.179923
225	0x3f9d38a1	1.2282907
226	0x3f9ecc96	1.2406185
227	0x3f9ae0d4	1.2099862
228	0x3f9e5a82	1.2371371
229	0x3f9fcadc	1.2483783
230	0x3f9db391	1.2320424
231	0x3fa503dd	1.2891804
232	0x3f978e5f	1.1840323
233	0x3f9455dd	1.1588703
234	0x3f977369	1.1832095
235	0x3fb12909	1.3840648
236	0x3f9c711e	1.2222021
237	0x3f98e023	1.1943401
238	0x3fa6fea2	1.3046458
239	0x3f949b58	1.1609907
240	0x3fa34b5d	1.2757374
241	0x3f9d8bec	1.2308326
242	0x3fa0dc4a	1.2567227
243	0x3f98c70d	1.1935745
244	0x3f91ed98	1.1400633
245	0x3fa8f355	1.3199259
246	0x3f8c7c8f	1.0975512
247	0x3f96d1c2	1.1782763
248	0x3f9fb9a7	1.2478532
249	0x3f766abb	0.9625661
250	0x3f7feba2	0.9996892
251	0x3facaf1e	1.3490942
252	0x3fd2f573	1.6481155
253	0x3fa6adc2	1.3021777
254	0x3fb152b0	1.3853359
255	0x3fb18b04	1.3870549

bn1.bias f4 [256]
0	0x3dd87340	0.10568857
1	0xbea807ed	-0.32818547
2	0x3b8351e0	0.004007563
3	0xbe27346a	-0.16328588
4	0xbe65237b	-0.22376816
5	0xbe1f3d38	-0.15550697
6	0xbe7d8103	-0.24756245
7	0xbd936b60	-0.071982145
8	0xbe7b0b96	-0.24516138
9	0xbdbf94a0	-0.0935452
10	0x3dd8d2c6	0.10587077
11	0xbeb86d1d	-0.36020747
12	0x3dd383a6	0.10327844
13	0xbda71153	-0.08157601
14	0xbdf03e52	-0.11730637
15	0xbe4f479b	-0.20242159
16	0x3b71ea90	0.0036913492
17	0xbeb668b0	-0.35626745
18	0xbea8e837	-0.32989666
19	0xbe3fbca1	-0.187243
20	0xbde272be	-0.110570416
21	0xbdd1ada1	-0.10238195
22	0xbec031cb	-0.3753799
23	0xbdc2ecf5	-0.09517852
24	0xbe3342bf	-0.1750593
25	0xbe662037	-0.22473226
26	0xbddb7a51	-0.107166894
27	0x3cc71ded	0.024306262
28	0xbb07c5a1	-0.0020717161
29	0xbe5a210a	-0.21301666
30	0x3c639ed1	0.013892845
31	0xbefb00bf	-0.49024007
32	0x3cf651fd	0.030068392
33	0xbe0c8412	-0.13722256
34	0xbb82be22	-0.0039899508
35	0xbce52417	-0.02797131
36	0xbe4a8ad9	-0.19779529
37	0xbeb80b88	-0.35946298
38	0xbe2f9525	-0.17146738
39	0xbe28559b	-0.16438906
40	0xbe3c53bc	-0.18391317
41	0xbe4609ed	-0.19339724
42	0xbc126f40	-0.008937657
43	0xbdaab052	-0.08334412
44	0xbd43d9df	-0.0478152
45	0xbebb000f	-0.36523482
46	0xbe5cebc0	-0.21574306
47	0xbe093a26	-0.13401088
48	0xbe7b2edf	-0.24529599
49	0xbc874e05	-0.016516695
50	0xbdbda15a	-0.09259291
51	0xbe5d4d4d	-0.21611519
52	0xbd983bb1	-0.0743326
53	0xbe76f6e5	-0.2411762
54	0xbe88e937	-0.2674043
55	0xbe28dd03	-0.1649056
56	0xbcc2f94d	-0.023800517
57	0xbe7e3bd4	-0.2482751
58	0xbdc44eb9	-0.09585328
59	0xbf1a3bb3	-0.60247344
60	0xbe61f65d	-0.22066636
61	0xbe17f576	-0.1483973
62	0xbd2f7030	-0.0428316
63	0x3e682016	0.2266849
64	0x3d786891	0.060646597
65	0xbe5273ae	-0.20551941
66	0x3d08cec5	0.033400316
67	0x3c87b591	0.01656607
68	0xbe8a9f2e	-0.2707457
69	0xbdc882a5	-0.097905435
70	0x3d5d7522	0.054066785
71	0xbe0729e8	-0.1319958
72	0xbd366840	-0.044533014
73	0xbea83c78	-0.32858634
74	0xbeb0f663	-0.34562978
75	0xbd27de29	-0.040983353
76	0xbec86d7e	-0.39146036
77	0xbe4622ff	-0.19349287
78	0xbd2d2268	-0.04226914
79	0xbdf2fad1	-0.11864246
80	0x3c20fd5f	0.009826033
81	0xbe88cb5a	-0.26717645
82	0xbe64ae50	-0.2233212
83	0xbe521ec1	-0.20519544
84	0xbda6fe44	-0.08153966
85	0xbe4c7f6a	-0.1997048
86	0x3bf1f192	0.0073835338
87	0x3cf97be9	0.030454593
88	0xbde61dfb	-0.11236187
89	0x3dd5c115	0.10437218
90	0x3dd3d56e	0.10343443
91	0xbe59be9a	-0.21264115
92	0xbe0fa976	-0.14029488
93	0xbe86e43c	-0.26346004
94	0xbe2b2c6c	-0.16716164
95	0xbd920213	-0.07129302
96	0xbcdfb04f	-0.02730575
97	0xbebe52f7	-0.37172672
98	0xbe802610	-0.2502904
99	0xbe8f2d98	-0.27964473
100	0xbce99a54	-0.028515972
101	0xbd339e55	-0.04385217
102	0xbe82a3ba	-0.25515538
103	0x3e0e626c	0.13904732
104	0xbe4515a7	-0.19246541
105	0x3af05f3f	0.0018338932
106	0xbe6945ce	-0.22780535
107	0xbe2afcf4	-0.16698056
108	0xbe3f5bab	-0.18687312
109	0xbe3b42c6	-0.18287191
110	0xbdd65135	-0.10464708
111	0xbe53a68e	-0.20669004
112	0xbd13389b	-0.035942655
113	0x3d6af272	0.05736012
114	0xbe88fe1b	-0.26756367
115	0xbe383492	-0.17988804
116	0xbd15382f	-0.036430534
117	0xbd21c58d	-0.03949504
118	0xbe92368b	-0.28557238
119	0xbeced6bf	-0.40398213
120	0xbbdaa1ae	-0.0066721058
121	0x3e03b1ef	0.12860845
122	0xbe9cf70c	-0.30657232
123	0xbe476ef8	-0.19475925
124	0xbde30f13	-0.110868596
125	0xbd92aed6	-0.071622536
126	0xbdf8f758	-0.12156552
127	0xbdf4cc66	-0.119530484
128	0xbdb60e31	-0.088894255
129	0xbdd8e95c	-0.10591385
130	0xbe199fdf	-0.15002392
131	0xbe66acea	-0.22526899
132	0xbec1eb12	-0.37874657
133	0xbe60ce06	-0.21953592
134	0xbe46cf79	-0.19415082
135	0x3e9b73b3	0.3036171
136	0xbe9a66d8	-0.3015659
137	0xbe669b3d	-0.22520156
138	0xbdafc4b9	-0.08582444
139	0xbd7f3c39	-0.062313292
140	0xbe3ae281	-0.18250467
141	0xbce44152	-0.027863178
142	0xbeb98d59	-0.36240652
143	0xbd7507cc	-0.05982189
144	0x3e50c495	0.2038749
145	0xbcb6e445	-0.022325644
146	0x3e0c26e4	0.1368671
147	0xbe345aed	-0.1761281
148	0xbe286b9e	-0.16447303
149	0xbdf7e14d	-0.121035196
150	0x3cba4d61	0.022741975
151	0xbd40a9ff	-0.04703712
152	0xbe1c6a10	-0.15274835
153	0xbe1b30c3	-0.1515532
154	0xbe27414c	-0.16333503
155	0xbdcc3b2e	-0.09972225
156	0xbe4847d7	-0.19558655
157	0x3c8e3137	0.017357452
158	0xbe9b59b9	-0.3034189
159	0xbdf385b4	-0.11890736
160	0xbdd91bb5	-0.10600988
161	0xbe828fd0	-0.25500345
162	0x3d7db421	0.061939362
163	0xbe3ab566	-0.1823326
164	0xbe1c6deb	-0.15276305
165	0xbe914832	-0.28375393
166	0x3dd0cff3	0.10195913
167	0xbe2f80d3	-0.17138986
168	0xbe000c8c	-0.12504786
169	0xbdd687ec	-0.10475144
170	0xbee6d3be	-0.4508342
171	0xbe394b48	-0.18095124
172	0x3c0a6a5a	0.008448208
173	0xbda53961	-0.08067585
174	0xbc7671aa	-0.015041748
175	0xbba99ce6	-0.0051761745
176	0xbdf1e5c3	-0.11811402
177	0xbde5289b	-0.111893855
178	0xbe57fea4	-0.21093231
179	0xbe1f32db	-0.15546744
180	0xbd445466	-0.04793205
181	0x3d92f956	0.07176463
182	0x3d0c5f79	0.034270737
183	0x3e4ed8ce	0.20199892
184	0x3d9485ad	0.07252059
185	0xbea61f01	-0.3244553
186	0xbe65eef3	-0.22454433
187	0x3d97cf5a	0.07412596
188	0xbe045804	-0.129242
189	0x3e05a66c	0.13051766
190	0xbd7996a7	-0.06093469
191	0xbe273d03	-0.16331868
192	0xbe4da205	-0.20081337
193	0xbe8aa849	-0.27081516
194	0xbcd2c680	-0.025729418
195	0xbe82c9cb	-0.2554458
196	0xbead131f	-0.3380365
197	0xbe1910ab	-0.14947765
198	0xbbb96f5b	-0.0056590266
199	0xbe2f7dea	-0.17137876
200	0xbefbdac0	-0.4919033
201	0x3cab4212	0.020905528
202	0xbe26a51d	-0.16273923
203	0xbdb7b2f0	-0.089696765
204	0xbe9fbbad	-0.31197873
205	0xbe6eea73	-0.23331623
206	0xbed64e01	-0.41856387
207	0xbeae28f5	-0.34015623
208	0xbde3af80	-0.11117458
209	0x3c8b3f2d	0.016997898
210	0xbdf54911	-0.11976827
211	0x3e951bd7	0.29122803
212	0xbe5af1b2	-0.21381262
213	0xbdd4e1d8	-0.10394639
214	0xbe669dff	-0.22521208
215	0xbc9c1ca5	-0.019056628
216	0xbe9e1da5	-0.30881992
217	0xbd79ec12	-0.06101615
218	0xbe25da72	-0.16196612
219	0xbe0939b2	-0.13400915
220	0x3cfe0c57	0.031011743
221	0x3e566afe	0.20939252
222	0xbe772d03	-0.24138264
223	0xbe16a7c1	-0.1471243
224	0xbe81c64a	-0.25346595
225	0xbe9ec5fa	-0.3101042
226	0xbe095e21	-0.13414814
227	0xbe5e438b	-0.21705453
228	0xbdf2d58c	-0.11857137
229	0x3ce1550c	0.027506374
230	0xbe81bb92	-0.25338417
231	0xbe1dd944	-0.15414912
232	0xbe19c8ac	-0.15017956
233	0xbe5143cc	-0.20436019
234	0xbe0d9476	-0.13826165
235	0xbdb59d2d	-0.088678695
236	0xbddb8283	-0.107182525
237	0x3c591383	0.013249281
238	0x3d4999ea	0.04921905
239	0xbe888b89	-0.26668957
240	0xbd7c741c	-0.061634168
241	0x3d8aee07	0.06783681
242	0xbdf263a6	-0.11835413
243	0xbe44ac5c	-0.19206375
244	0xbe4bcee5	-0.19903143
245	0x3e4cb199	0.19989623
246	0xbe781850	-0.24228024
247	0xbea88f39	-0.3292177
248	0xbe2a63d2	-0.16639641
249	0xbe90ce9d	-0.28282633
250	0xbe7b20af	-0.24524187
251	0x3ddb658e	0.107127294
252	0x3e95f6b5	0.29289785
253	0xbdcb9cf4	-0.09942046
254	0xbe138273	-0.14405231
255	0xbd7819b3	-0.060571384
