checkpoint_actor1.pth (torch, 299564 bytes, 10 tensors)

fc1.weight f4 [256, 24]
-0.19585215 -0.2359095 0.02307529 -0.13917668 0.23579146 -0.06440991 -0.028997546 -0.115443185
-0.24436118 -0.23032995 -0.060996372 -0.082265176 0.13790059 0.03535973 0.026986541 -0.11378954
-0.28185847 -0.24651934 -0.15840627 0.13842866 0.032729685 0.18531759 -0.15484808 0.12317114
-0.03385875 0.27196547 -0.035387453 0.05993657 0.019008387 0.58314615 0.050527804 0.010828936
0.08855076 0.28760764 -0.044292662 0.14637057 -0.09015774 0.4725506 0.024189897 0.16433516
0.0379926 0.2058549 -0.026575709 -0.03407067 -0.14842416 0.5234741 0.0040789335 -0.14743394
0.09886549 -0.034141947 0.088671274 -0.00050079526 0.16275233 -0.114902966 0.088771164 -0.0035776014
0.020536985 -0.09912049 -0.00093952694 -0.21958822 -0.09072844 -0.029908646 0.0101701375 -0.12495952
-0.048659217 -0.30204645 -0.07522863 -0.2772631 -0.2269308 0.15614346 -0.14501567 -0.2715126
0.31411093 -0.17291309 0.031040883 -0.2112644 -0.013901063 0.07340963 0.040999062 -0.15903611
0.17853443 -0.3277767 -0.016525323 -0.13275121 -0.10055443 0.0816701 0.02089464 -0.078193925
0.2059547 -0.40300414 -0.06828449 -0.1696359 -0.21915485 0.05201443 -0.08653052 -0.23508693
-0.103395626 0.06937878 0.0035116808 0.08556715 -0.054479554 0.58062154 -0.0064234105 0.13881612
-0.056489334 0.07360533 -0.026346877 0.08967208 -0.13309033 0.44542783 0.046924114 0.18453711
-0.091762446 0.050300907 0.0063525178 -0.06337409 -0.19281437 0.42691574 -0.037546977 -0.13321681
0.0012222624 0.29713765 0.025017096 -0.00318307 0.20628783 0.11037304 0.05824335 -0.0371753
0.037347697 0.35223934 0.011195203 0.050946347 0.34184426 0.0207846 0.033422615 0.1375847
0.049965255 0.32430306 0.046748333 -0.15860501 0.47265244 0.032904215 -0.00947323 -0.08524786
0.04287637 -0.30509484 -0.08521017 0.23308565 -0.23822674 -0.10731347 -0.077376775 0.2721854
0.02441329 -0.22295927 0.034521945 0.10408511 -0.028281266 0.026500154 -0.008169675 0.028753584
-0.041823853 -0.18900475 -0.037946176 0.4579393 0.17701863 -0.029064197 -0.022326265 0.43982995
0.14856644 0.17487183 0.03647103 0.04872837 0.0055427896 -0.27569228 -0.04189811 0.058469158
0.101097316 0.23764917 0.070232674 0.041843604 -0.028760552 -0.39092615 0.020817855 0.029763062
0.15091127 0.20319326 -0.16015705 0.22661702 0.015408301 -0.6046511 -0.064916216 0.12146043
0.07781827 0.044080984 -0.009362892 -0.026906496 -0.0029650463 0.45428896 -0.014948574 -0.010122989
0.18946865 0.038453262 -0.0055947583 0.00978253 -0.14592594 0.3916634 0.0078348005 0.032344695
0.079684205 0.022441505 -0.003810712 -0.08039742 -0.31760862 0.4341904 -0.03751125 -0.10896472
0.08018298 -0.02384806 -0.05883351 0.065942384 -0.095258 -0.39722654 -0.008101183 0.061229803
-0.031747077 -0.080616415 0.08881477 0.037802923 0.02329091 -0.48849493 0.056473207 0.012896781
0.0645408 -0.046455104 0.043396752 0.20754156 0.12156147 -0.7546837 0.075427465 0.17228778
-0.22634172 -0.15254182 -0.060370114 0.067127466 0.32901752 0.0064779804 0.013500895 0.025555069
-0.07294694 -0.01000096 -0.014289551 0.11444674 0.36454624 -0.025969068 -0.023286963 0.14016885
00000000: 778d 48be 4392 71be 6408 bd3c 5584 0ebe
00000010: 5173 713e 58e9 83bd 438c edbc 7a6d ecbd
00000020: d139 7abe 9ddb 6bbe 55d7 79bd a57a a8bd
00000030: d035 0d3e 5dd5 103d e112 dd3c 7e0a e9bd
00000040: c14f 90be 916f 7cbe 4135 22be 3ec0 0d3e
00000050: 900f 063d e5c3 3d3e 7f90 1ebe 2741 fc3d
00000060: 79af 0abd 0f3f 8b3e 6ff2 10bd 0c80 753d
00000070: 7ab7 9b3c 1149 153f 3ef6 4e3d d96b 313c
00000080: 1a5a b53d 4f41 933e 396c 35bd 2be2 153e
00000090: 9fa4 b8bd 27f2 f13e e429 c63c 7a47 283e
000000a0: 219e 1b3d a0cb 523e 4db5 d9bc b08d 0bbd
000000b0: 81fc 17be 6602 063f 93a8 853b ecf8 16be
000000c0: fd79 ca3d 6dd8 0bbd 4999 b53d cd47 03ba
000000d0: 8ca8 263e 3f52 ebbd a8cd b53d 3176 6abb
000000e0: 2e3d a83c afff cabd 964a 76ba bcdb 60be
000000f0: d5cf b9bd fa02 f5bc a6a0 263c c7ea ffbd
00000100: e34e 47bd d5a5 9abe 7811 9abd 6ef5 8dbe
00000110: 8c60 68be 12e4 1f3e fd7e 14be b303 8bbe
00000120: 26d3 a03e 2110 31be 7349 fe3c b255 58be
00000130: 49c1 63bc ca57 963d a2ee 273d 5dda 22be
00000140: bbd1 363e 59d2 a7be 1d60 87bc efef 07be
00000150: 7bef cdbd a742 a73d 3c2b ab3c 2324 a0bd
00000160: cae5 523e 8f56 cebe bdd8 8bbd 09b5 2dbe
00000170: 216a 60be 150d 553d ea36 b1bd a1ba 70be
00000180: 16c1 d3bd 7616 8e3d 3a24 663b d43d af3d
00000190: f425 5fbd 9da3 143f 797b d2bb d025 0e3e
000001a0: 5c61 67bd 64be 963d 68d5 d7bc ffa5 b73d
000001b0: d548 08be 1e0f e43e 8033 403d 4cf7 3c3e
000001c0: f3ed bbbd 5308 4e3d c828 d03b 46ca 81bd
000001d0: 2171 45be b394 da3e dcca 19bd fd69 08be
000001e0: 5234 a03a 6d22 983e a7f0 cc3c 0e9b 50bb
000001f0: 1e3d 533e 430b e23d 9490 6e3d 2145 18bd
00000200: e6f9 183d b758 b43e 166c 373c 1ead 503d
00000210: 3606 af3e 7744 aa3c 27e6 083d 01e3 0c3e
00000220: 5ea8 4c3d 0d0b a63e 2e7b 3f3d 5a69 22be
00000230: 80ff f13e 92c6 063d 9b35 1bbc 6e96 aebd
00000240: 229f 2f3d 6435 9cbe ab82 aebd 01ae 6e3e
00000250: b6f1 73be 2ac7 dbbd b777 9ebd e25b 8b3e
00000260: 61fe c73c 6f4f 64be e266 0d3d 932a d53d
00000270: 1dae e7bc da16 d93c 1ada 05bc a38c eb3c
00000280: 7d4f 2bbd 768a 41be 736d 1bbd 0577 ea3e
00000290: 5f44 353e 0a18 eebc 92e5 b6bc 6431 e13e
000002a0: cd21 183e 9a11 333e a662 153d 6697 473d
000002b0: 4aa0 b53b 8a27 8dbe 5a9d 2bbd 5b7d 6f3d
000002c0: 1c0c cf3d 4e5a 733e 26d6 8f3d 3364 2b3d
000002d0: 409b ebbc 7927 c8be 358a aa3c aad1 f33c
000002e0: 7c88 1a3e e511 503e 3600 24be 4b0e 683e
000002f0: 1973 7c3c 6aca 1abf cbf2 84bd 3fc0 f83d
00000300: 2f5f 9f3d 438e 343d d166 19bc 036b dcbc
00000310: 3951 42bb 9098 e83e ddea 74bc e5da 25bc
00000320: 1204 423e 2b81 1d3d 3c54 b7bb e846 203c
00000330: 9c6d 15be 1b88 c83e 895d 003c df7b 043d
00000340: 7931 a33d 3fd7 b73c 23bd 79bb 67a7 a4bd
00000350: 999d a2be 344e de3e 65a5 19bd e528 dfbd
00000360: f936 a43d 025d c3bc 68fb 70bd cd0c 873d
00000370: a016 c3bd 4761 cbbe d3ba 04bc 1acc 7a3d
00000380: 3909 02bd 381a a5bd 85e4 b53d 3dd7 1a3d
00000390: 94cc be3c 021c fabe 7350 673d 054d 533c
000003a0: f82d 843d b547 3ebd cbc0 313d c685 543e
000003b0: 38f5 f83d f332 41bf b779 9a3d 356c 303e
000003c0: 20c6 67be ec33 1cbe a746 77bd 207a 893d
000003d0: fc74 a83e 3d45 d43b dc32 5d3c dd58 d13c
000003e0: 3565 95bd 11db 23bc b91e 6abc 0d63 ea3d
000003f0: cea5 ba3e 15bd d4bc 4dc4 bebc 6c88 0f3e

fc1.bias f4 [256]
-0.19111465 -0.122409165 0.1363146 -0.03757664 0.08651431 -0.16848773 -0.1577305 -0.07305831
0.0052432185 -0.04441725 -0.11819275 -0.029519312 -0.063376874 -0.18324757 0.062123846 -0.10907654
-0.11425466 0.0894627 -0.16196527 -0.10746125 0.068608776 -0.13899162 0.12141494 0.16567771
-0.13322434 0.025319455 0.10770711 -0.103115186 -0.113212444 0.06579754 0.014695372 0.1663679
0.20187294 0.076533556 0.10932804 -0.16229458 -0.019477949 -0.055612635 0.09212198 -0.15019739
0.07839851 -0.09478735 0.19866045 0.045176163 -0.035300266 -0.11199211 -0.114116415 -0.07635759
-0.05198214 -0.023129715 0.11524582 -0.16529974 -0.099710844 0.15733549 -0.012121571 -0.14372107
-0.07928874 -0.0922204 -0.040282883 0.18263508 -0.059619237 0.07852293 0.10328957 -0.055036243
0.17617671 0.12063649 0.061701734 -0.0414327 0.010609671 0.15582126 -0.16701849 0.097807445
0.011169004 0.14065328 -0.0368131 0.15824716 -0.18012157 -0.08404758 -0.15578902 0.16542363
0.024943387 -0.19324003 -0.14990263 -0.18268912 0.072141804 0.15432723 -0.07526856 -0.06718767
-0.018107235 0.05130072 -0.06914302 -0.18908867 0.07655444 0.06138089 -0.042753585 0.19006039
0.007772068 -0.20072933 -0.163712 -0.08433935 -0.002108265 0.15442425 -0.061444834 0.07815389
-0.10013116 -0.010544074 0.115997136 0.028230505 -0.06000104 -0.13695148 -0.16210544 -0.1522918
-0.19857633 -0.113958165 -0.18966807 0.18136948 -0.19377851 0.19550505 -0.13158971 0.012365728
-0.022228442 0.036549028 0.061528616 0.07221557 -0.023278253 0.056256905 -0.029894728 0.19549538
0.19745556 0.19088005 0.1823677 0.087441504 -0.15452284 -0.01722346 -0.107330136 -0.10642973
0.19722435 -0.019186988 -0.16213627 0.07343321 0.0600311 0.046770193 0.05513514 0.13398524
0.03310416 0.18635626 0.13897644 0.11472426 -0.0807874 0.20307207 0.19946355 -0.07382084
0.022414017 -0.16372724 0.10056809 -0.01592993 -0.17131984 0.0028818345 -0.12962005 -0.10949391
-0.18826409 -0.1511734 0.1101254 0.013519545 0.17251162 0.097959265 -0.07413181 0.18626364
-0.13180818 0.15992023 -0.07241448 -0.069188036 -0.09883489 -0.014607583 0.10991993 -0.073139265
0.14160854 -0.09847188 0.15528837 0.18212765 -0.121337645 0.019813806 0.15983914 -0.023881221
-0.15503895 0.0007296221 -0.13951918 -0.03779374 0.16954212 0.1438637 0.13887626 -0.121501386
-0.109201334 0.00446515 0.13177024 -0.15365483 -0.10886254 -0.19946046 0.09654201 -0.13262759
0.061887395 -0.14123324 -0.055794585 -0.1973447 -0.13841015 -0.029373502 -0.08573357 0.056902718
-0.112485565 0.02515583 -0.019743424 -0.0003486471 0.103381015 -0.13768573 -0.06534047 -0.10212559
0.040800348 0.106122755 -0.11862203 0.120051 0.06677626 0.083308324 -0.18446429 -0.1638251
-0.01834282 -0.17576542 -0.1805218 -0.10637789 -0.018037431 0.02645697 0.14868484 -0.16323096
-0.07068014 0.19529204 -0.18938224 -0.18689571 0.0643282 -0.089572236 0.10791084 0.17250752
-0.035764743 -0.16753004 -0.0039242217 -0.03346097 -0.004881114 -0.034885544 0.14203274 0.1893699
0.14481732 0.088269845 0.13700745 -0.13937679 -0.060679592 0.07981449 0.058308147 0.17205402
00000000: 8fb3 43be a8b1 fabd 0e96 0b3e f6e9 19bd
00000010: 6a2e b13d 0c88 2cbe 1b84 21be 989f 95bd
00000020: 4ecf ab3b ddee 35bd 0a0f f2bd 7cd2 f1bc
00000030: bccb 81bd 40a5 3bbe 9375 7e3d 8563 dfbd
00000040: 59fe e9bd 3838 b73d 39da 25be a514 dcbd
00000050: c282 8c3d d253 0ebe 65a8 f83d 6ba7 293e
00000060: f66b 08be bf6a cf3c 8c95 dc3d 0e2e d3bd
00000070: eddb e7bd dcc0 863d dcc4 703c 595c 2a3e
00000080: c8b7 4e3e a0bd 9c3d 61e7 df3d 8d30 26be
00000090: 3890 9fbc 13ca 63bd 73aa bc3d 58cd 19be
000000a0: 668f a03d df1f c2bd a56d 4b3e a40a 393d
000000b0: 0397 10bd 1f5c e5bd deb5 e9bd 5e61 9cbd
000000c0: 39eb 54bd 877a bdbc 0006 ec3d 5644 29be
000000d0: 3335 ccbd 8e1c 213e 8e99 46bc 9e2b 13be
000000e0: 2362 a2bd 0dde bcbd aaff 24bd b104 3b3e
000000f0: 4d33 74bd a1d0 a03d 7b89 d33d af6d 61bd
00000100: ab67 343e 4410 f73d f5ba 7c3d 56b5 29bd
00000110: 2fd4 2d3c 9c8f 1f3e e506 2bbe 454f c83d
00000120: 33fe 363c 6a07 103e 55c9 16bd 8b0b 223e
00000130: ca71 38be 2321 acbd 2887 1fbe d064 293e
00000140: 1356 cc3c b7e0 45be 1380 19be db12 3bbe
00000150: 15bf 933d f507 1e3e 6726 9abd b099 89bd
00000160: a055 94bc b420 523d db9a 8dbd 76a0 41be
00000170: 93c8 9c3d 876a 7b3d 621e 2fbd 319f 423e
00000180: d5ac fe3b fd8b 4dbe 1ea4 27be 1cba acbd
00000190: d12a 0abb 6421 1e3e 94ad 7bbd 260f a03d
000001a0: 9111 cdbd 0dc1 2cbc e88f ed3d a943 e73c
000001b0: a7c3 75bd 023d 0cbe f8fe 25be 62f2 1bbe
000001c0: 9857 4bbe e662 e9bd 5938 42be ecb8 393e
000001d0: e06d 46be 7a32 483e 74bf 06be 9f99 4a3c
000001e0: 6c18 b6bc 6fb4 153d 6e05 7c3d c2e5 933d
000001f0: 09b2 bebc a46d 663d cae5 f4bc f12f 483e
00000200: ca31 4a3e 0f76 433e 99be 3a3e 8814 b33d
00000210: 3c3b 1ebe 3718 8dbc e7cf dbbd d5f7 d9bd
00000220: 2ef5 493e 082e 9dbc 0d07 26be 2764 963d
00000230: 2ce3 753d 1a92 3f3d 62d5 613d 6d33 093e
00000240: 3a98 073d 2dd4 3e3e d74f 0e3e 8ef4 ea3d
00000250: dd73 a5bd 20f2 4f3e 2c40 4c3e 612f 97bd
00000260: 9a9d b73c 1da8 27be a5f6 cd3d 7c7f 82bc
00000270: 786e 2fbe 29dd 3c3b 1ebb 04be 583e e0bd
00000280: 4dc8 40be 33cd 1abe 6d89 e13d 1581 5d3c
00000290: e3a6 303e de9e c83d 6bd2 97bd e5bb 3e3e
000002a0: b9f8 06be 21c2 233e 0b4e 94bd 75b2 8dbd
000002b0: f269 cabd a554 6fbc b31d e13d 0aca 95bd
000002c0: d401 113e a0ab c9bd ea03 1f3e ac7f 3a3e
000002d0: df7f f8bd 9050 a23c dfac 233e 8da2 c3bc
000002e0: 88c2 1ebe 1c44 3f3a 1ede 0ebe 9ccd 1abd
000002f0: 739c 2d3e 0151 133e 9435 0e3e b8d5 f8bd
00000300: f3a4 dfbd 6550 923b c7ee 063e b157 1dbe
00000310: 53f3 debd 5d3f 4cbe d1b7 c53d 87cf 07be
00000320: a37d 7d3d 729f 10be dd88 64bd bb14 4abe
00000330: 64bb 0dbe b3a0 f0bc 1595 afbd d312 693d
00000340: d55e e6bd 9913 ce3c f6bc a1bc 9fca b6b9
00000350: 6db9 d33d 7dfd 0cbe 39d1 85bd 3927 d1bd
00000360: 441e 273d e356 d93d 1bf0 f2bd 4cdd f53d
00000370: fec1 883d 8e9d aa3d 35e4 3cbe c4c1 27be
00000380: af43 96bc dafb 33be b5da 38be a7dc d9bd
00000390: 3cc3 93bc 4abc d83c d740 183e 0426 27be
000003a0: c0c0 90bd a3fa 473e 6bed 41be 9761 3fbe
000003b0: 81be 833d a671 b7bd 5c00 dd3d d0a5 303e
000003c0: 0d7e 12bd ff8c 2bbe c296 80bb 5f0e 09bd
000003d0: c0f1 9fbb 25e4 0ebd 0871 113e 2fea 413e
000003e0: fe4a 143e d2c6 b43d ae4b 0c3e cab8 0ebe
000003f0: 2a8b 78bd c875 a33d 86d4 6e3d ee2e 303e

fc2.weight f4 [256, 256]
-0.09545056 -0.070190564 0.16937928 0.11261187 0.006805248 0.1812762 0.09883204 0.10633398
-0.015958488 -0.02733289 0.015839333 0.12936471 0.089172184 -0.03917832 0.15200694 0.024581334
-0.2113865 0.074687466 -0.03037121 0.19376917 -0.10131343 0.047883406 0.16204765 -0.16970755
-0.31126177 -0.07217861 -0.26765424 -0.47410485 -0.0025593624 -0.7103788 0.2269502 -0.1360193
-0.086692445 -0.022405574 0.14466676 -0.019106489 0.09714788 0.25172356 -0.18408884 0.09585464
-0.20599458 -0.00025256566 -0.027096154 -0.16183643 -0.11175196 0.18548782 -0.17188053 0.014852161
-0.451192 -0.36505356 -0.22888869 -0.033806596 -0.18560418 0.21406145 0.11157741 -0.20777498
0.13289988 -0.04118547 -0.12635675 -0.2551702 -0.12321191 -0.046903394 -0.117524475 0.0004670581
0.17896833 -0.1591926 -0.01497354 0.22095853 0.09946865 -0.35281348 -0.03985909 -0.121682115
-0.035487257 -0.08716389 0.091628775 0.06857146 -0.22415997 0.039387222 0.0056780213 -0.16067044
-0.046308365 -0.6843963 0.15413794 0.16707574 0.09798332 -0.4818612 0.24704231 0.036505856
0.21870853 0.069319375 0.27201387 -0.031115005 -0.04861908 0.14930812 -0.20595057 -0.1597122
0.024708 0.10772215 0.042166613 0.14477023 -0.23090886 -0.06820422 -0.01769133 -0.14015771
0.15096746 -0.0009947399 -0.08611708 -0.1103488 -0.27122322 0.11929599 0.04526647 -0.03365802
-0.40967292 -0.022686636 -0.008559995 -9.595031e-05 0.057969533 0.0985106 -0.16896881 0.06009163
-0.0725974 -0.041248128 0.013201275 -0.071418166 -0.017068332 -0.108417384 -0.15761735 -0.0035550394
0.18386844 -0.14645398 -0.20896785 -0.040547397 -0.039907735 -0.2554241 -0.019024136 0.0679181
0.02749787 -0.04011539 -0.076726936 0.109296694 0.16111165 0.015185937 0.1660511 -0.29554564
-0.051324066 0.06968578 -0.115176745 0.01881746 0.08069573 -0.26135078 0.021780835 -0.033701636
0.1404625 -0.3562761 -0.03531031 -0.056114305 -0.3125118 -0.009171968 0.14203724 -0.03219655
0.00011774584 -0.2439827 0.20710003 0.13916294 0.028223421 0.06917854 -0.0767565 0.10571791
-0.13203216 0.2778748 0.035795197 0.1445077 -0.27094582 -0.085570015 -0.051039644 0.027089171
0.16644372 0.013875551 0.018225636 -0.09199782 0.07570072 0.094767116 0.10151247 -0.07409504
0.025740154 0.07695633 -0.10391381 0.037925012 0.21442921 -0.07982643 0.06504273 0.09415805
0.062209733 0.082100004 -0.013738096 -0.03192087 0.100709155 0.26626626 -0.24673724 0.04390992
-0.07318333 -0.020073576 0.14829454 -0.045559738 -0.12562254 -0.013273488 -0.15763745 -0.03133624
0.065844946 0.12992428 0.023796616 0.011747715 0.10378306 0.18508443 -0.025063805 -0.0043772394
0.029080693 -0.10931866 -0.12360302 0.10931282 -0.19576468 0.1613121 0.1335382 0.059686854
0.00073325844 -0.087695025 0.2447456 0.16843376 0.20058522 -0.02127728 -0.03233311 -0.079785675
-0.045092423 0.20386009 -0.09048722 -0.05409347 0.20989273 -0.20478323 0.20734769 -0.34929162
0.08936499 -0.049485017 -0.15923063 0.017542033 -0.0012907155 0.04611883 0.14095159 -0.22096512
-0.050146613 0.20533371 -0.22732581 0.09282295 0.18139471 -0.7255376 -0.009953373 0.14685012
00000000: 957b c3bd 12c0 8fbd c371 2d3e 0da1 e63d
00000010: 8ffe de3b 78a0 393e 7468 ca3d a1c5 d93d
00000020: 60bb 82bc 3ae9 dfbc 7dc1 813c 2f78 043e
00000030: e89f b63d 7279 20bd b5a7 1b3e cb5e c93c
00000040: b475 58be bef5 983d 0bcd f8bc 6d6b 463e
00000050: 6a7d cfbd 6421 443d d2ef 253e d1c7 2dbe
00000060: b45d 9fbe 61d2 93bd fa09 89be dfbd f2be
00000070: faba 27bb 63db 35bf a265 683e a548 0bbe
00000080: cf8b b1bd e58b b7bc 8623 143e 3685 9cbc
00000090: 78f5 c63d e9e1 803e c981 3cbe 704f c43d
000000a0: 3ef0 52be ca6a 84b9 c1f8 ddbc 73b8 25be
000000b0: 36de e4bd 85f0 3d3e 7301 30be 7a56 733c
000000c0: a302 e7be 4de8 babe cc61 6abe c978 0abd
000000d0: 060f 3ebe ed32 5b3e b282 e43d f7c2 54be
000000e0: e816 083e 18b2 28bd aa63 01be aba5 82be
000000f0: 8756 fcbd c61d 40bd acb0 f0bd 7adf f439
00000100: 7943 373e 6303 23be 9453 75bc f442 623e
00000110: 38b6 cb3d f8a3 b4be 4943 23bd 7934 f9bd
00000120: 165b 11bd fb82 b2bd dea7 bb3d 326f 8c3d
00000130: 318a 65be 7f54 213d b20e ba3b cb86 24be
00000140: d7ad 3dbd 9934 2fbf 56d6 1d3e e715 2b3e
00000150: 7bab c83d 83b6 f6be a9f8 7c3e 2a87 153d
00000160: 21f5 5f3e 51f7 8d3d 6745 8b3e e5e4 febc
00000170: cd24 47bd 3ae4 183e b5e4 52be 988b 23be
00000180: 6e68 ca3c 6e9d dc3d e6b6 2c3d a63e 143e
00000190: 5f73 6cbe a7ae 8bbd 68ed 90bc 8185 0fbe
000001a0: 3797 1a3e ef61 82ba 275e b0bd 8dfe e1bd
000001b0: c5dd 8abe 7551 f43d 5669 393d fedc 09bd
000001c0: a6c0 d1be 53d9 b9bc 393f 0cbc ee38 c9b8
000001d0: 7671 6d3d edbf c93d 2906 2dbe a422 763d
000001e0: f2ad 94bd ccf3 28bd 294a 583c b043 92bd
000001f0: e3d2 8bbc ef09 debd 7166 21be aafb 68bb
00000200: 0248 3c3e 08f8 15be abfb 55be 0715 26bd
00000210: 4b76 23bd f3c6 82be 81d8 9bbc a518 8b3d
00000220: 3743 e13c 0950 24bd 0323 9dbd f2d6 df3d
00000230: 74fa 243e 70ce 783c 4d09 2a3e c251 97be
00000240: 2f39 52bd 6bb7 8e3d c9e1 ebbd 1327 9a3c
00000250: ce43 a53d c5cf 85be b96d b23c ba0a 0abd
00000260: 67d5 0f3e d269 b6be 8ba1 10bd 1dd8 65bd
00000270: 8c01 a0be 0646 16bc 3672 113e 88e0 03bd
00000280: 51ee f638 9ad6 79be 0812 543e bb80 0e3e
00000290: ce34 e73c 7aad 8d3d 8332 9dbd a282 d83d
000002a0: 7033 07be 9b45 8e3e fc9d 123d d4f9 133e
000002b0: 69b9 8abe 553f afbd f20e 51bd 1cea dd3c
000002c0: 3970 2a3e 4756 633c ee4d 953c 5a69 bcbd
000002d0: fb08 9b3d 4315 c23d c5e5 cf3d 24bf 97bd
000002e0: 04dd d23c 489b 9d3d c3d0 d4bd 4257 1b3d
000002f0: 5593 5b3e 0a7c a3bd 1f35 853d f0d5 c03d
00000300: a2cf 7e3d 0c24 a83d c015 61bc 75bf 02bd
00000310: 9a40 ce3d 0d54 883e b0a8 7cbe e3da 333d
00000320: 24e1 95bd 5771 a4bc 86da 173e d99c 3abd
00000330: 32a3 00be 0b79 59bc b66b 21be 6e5a 00bd
00000340: b7d9 863d df0a 053e 1ff1 c23c 7d79 403c
00000350: 378c d43d c686 3d3e 9c52 cdbc f26e 8fbb
00000360: a23a ee3c 76e2 dfbd 9523 fdbd 66df df3d
00000370: 8976 48be 002f 253e 3dbe 083e 347a 743d
00000380: 2438 403a 7399 b3bd 979e 7a3e e679 2c3e
00000390: 3666 4d3e b14d aebc b96f 04bd ac66 a3bd
000003a0: d5b2 38bd b3c0 503e 5d51 b9bd 1d91 5dbd
000003b0: 1fee 563e b2b2 51be f452 543e 5ad6 b2be
000003c0: fe04 b73d cdb0 4abd 5b0d 23be 4fb4 8f3c
000003d0: 3a2d a9ba 19e7 3c3d 9d55 103e ae44 62be
000003e0: 8966 4dbd 0043 523e 19c8 68be f519 be3d
000003f0: 89bf 393e d5bc 39bf 7913 23bc e15f 163e

fc2.bias f4 [256]
0.014086867 0.021740029 0.120661065 0.12403397 -0.021096813 0.06780376 0.040686097 -0.058383357
0.063112944 0.11686716 0.040689796 0.14141408 0.035994817 0.16998288 0.1791642 -0.06407696
-0.043089375 0.012461967 0.11841908 0.17899406 0.1515039 0.064410485 0.15822378 -0.054394823
0.061461214 0.0069465567 0.023836462 -0.04519971 0.011197654 -0.0804655 0.09186137 0.13048978
0.08471307 0.17123185 0.017764725 0.15211733 0.15476663 0.07743421 0.15222362 0.20484875
-0.030711915 0.2104759 0.07622504 0.0073063783 0.21147189 0.115171984 0.05034107 0.18814129
-0.16063091 0.017041935 -0.087921955 0.15058117 -0.11802646 -0.105334595 0.11618912 0.0061396253
0.05457974 0.15351565 -0.045381747 -0.06214096 -0.02639474 0.042287104 0.07477373 0.100002766
-0.21966793 0.1546716 0.1158609 -0.11439177 -0.030893017 0.17293665 0.06259758 0.019708062
-0.058477003 0.21716452 0.033132944 -0.028577914 0.07343129 0.03792556 -0.08164711 -0.0015586211
-0.0056742495 0.049818654 0.016938465 0.24049535 0.0065563195 -0.042425055 -0.08783367 -0.0014848603
0.116945654 0.15065177 0.05152753 -0.005320438 0.1749209 0.20908083 -0.05196119 0.18772256
-0.09605395 -0.06262475 -0.048117373 -0.052514028 -0.07507702 0.15564035 0.039377768 0.09248638
0.14643966 0.093017265 -0.02170597 0.11592409 0.07806512 0.26297542 0.092096955 0.11739059
-0.024139736 0.020420976 -0.057641875 0.10579906 0.15989672 0.08391229 0.15532888 -0.026764171
0.09902552 0.00780331 -0.014316409 0.07212039 -0.006068125 -0.07686552 0.11668216 0.21083769
-0.0843298 0.12216311 0.07052287 0.026727457 0.17824885 0.042798553 0.14261688 0.042189945
0.16321886 -0.058782395 -0.02534094 0.08328828 0.012057502 0.027342075 0.15499647 0.035297815
0.14848204 0.053143147 0.041467283 -0.068514995 0.11298831 -0.027217316 0.24491723 -0.042879473
0.09622612 0.12346071 0.20788963 -0.103007786 0.057102468 -0.0037672406 -0.115580425 0.007817514
-0.09453863 0.050134473 0.17069194 -0.048811786 -0.06803335 0.006214806 0.03827558 0.17209618
-0.045860417 0.048269488 0.113349594 -0.12204997 -0.058582217 -0.019238885 0.091915846 0.22941774
0.1231225 0.09999508 0.086694 0.06308615 0.12822649 -0.047539048 0.16172421 0.060290776
-0.0008601274 0.013512651 0.06584161 0.024854217 -0.090628795 0.093245916 0.089912094 0.18315348
0.0491542 0.10474387 -0.010776954 0.031022817 0.13152656 -0.0058630495 -0.026698127 0.15171169
0.13955815 0.037727013 -0.013688842 0.111839086 0.0010391044 0.25423497 0.07778689 0.106978886
-0.07416694 -0.031927787 0.12592101 0.06641218 0.07561642 0.17093326 -0.0620975 0.12248866
0.007573773 0.06251364 0.038318504 0.11677747 0.14599267 0.047988005 0.07659204 0.07091237
-0.0014504568 0.1271586 0.14369111 -0.01905797 0.0097256005 0.06829252 -0.052134354 0.025020855
-0.0072322013 0.2569985 0.04056955 -0.0055686156 0.10792893 0.011278386 0.067326754 0.10584303
0.02255874 0.102242395 0.14039165 0.07690483 0.06483405 0.1834004 0.221275 0.052994482
0.021860056 0.05865317 0.15049718 0.120974965 -0.019239701 0.009241956 0.02021204 0.16560447
00000000: 9acc 663c 2518 b23c 261d f73d 8605 fe3d
00000010: 39d3 acbc b3dc 8a3d 77a6 263d 6323 6fbd
00000020: 5c41 813d 0d58 ef3d 58aa 263d dace 103e
00000030: 4d6f 133d fe0f 2e3e d276 373e c83a 83bd
00000040: 7c7e 30bd 472d 4c3c b485 f23d 384a 373e
00000050: d723 1b3e a5e9 833d 6a05 223e 1bcd 5ebd
00000060: c1be 7b3d f19f e33b af44 c33c 5523 39bd
00000070: 5d76 373c 19cb a4bd d021 bc3d 1d9f 053e
00000080: 0c7e ad3d 6757 2f3e 5487 913c a5c4 1b3e
00000090: 257b 1e3e d495 9e3d 82e0 1b3e dfc3 513e
000000a0: 8e97 fbbc ff86 573e e01b 9c3d 586a ef3b
000000b0: 168c 583e 4adf eb3d 7032 4e3d 1ca8 403e
000000c0: 6e7c 24be 879b 8b3c 6d10 b4bd f331 1a3e
000000d0: dbb7 f1bd aab9 d7bd 90f4 ed3d e92e c93b
000000e0: 018f 5f3d 3533 1d3e 36e2 39bd 8587 7ebd
000000f0: c839 d8bc 3e35 2d3d f822 993d 40ce cc3d
00000100: a1f0 60be 3b62 1e3e 7b48 ed3d 3b46 eabd
00000110: 5a13 fdbc 4e16 313e 2933 803d cd72 a13c
00000120: 9585 6fbd 6060 5e3e 69b6 073d 3b1c eabc
00000130: 2563 963d d557 1b3d 9a36 a7bd a54a ccba
00000140: 0eef b9bb a50e 4c3d 89c2 8a3c 6a44 763e
00000150: 65d6 d63b e5c5 2dbd 24e2 b3bd a59f c2ba
00000160: 3481 ef3d 7544 1a3e 880e 533d 1257 aebb
00000170: 771e 333e 4919 563e 42d5 54bd 583a 403e
00000180: efb7 c4bd 6841 80bd b916 45bd f318 57bd
00000190: fbc1 99bd 2f60 1f3e 954a 213d 8069 bd3d
000001a0: 47f4 153e d67f be3d b8d0 b1bc 9c69 ed3d
000001b0: 9be0 9f3d b7a4 863e 549d bc3d 7a6a f03d
000001c0: b2c0 c5bc e449 a73c e319 6cbd 2dad d83d
000001d0: f7bb 233e 35da ab3d 890e 1f3e 8940 dbbc
000001e0: e4cd ca3d e9b2 ff3b 5f8f 6abc dbb3 933d
000001f0: 1fd7 c6bb ab6b 9dbd 0ef7 ee3d d6e5 573e
00000200: 1ab5 acbd a730 fa3d 4b6e 903d 8af3 da3c
00000210: de86 363e 894d 2f3d 290a 123e 5dcf 2c3d
00000220: d822 273e cfc5 70bd ce97 cfbc 0c93 aa3d
00000230: d48c 453c 7dfc df3c 65b7 1e3e 7194 103d
00000240: ad0b 183e a1ac 593d 99d9 293d 9751 8cbd
00000250: 6a66 e73d d9f6 debc 95cb 7a3e 63a2 2fbd
00000260: 3312 c53d f8d8 fc3d 05e1 543e bff5 d2bd
00000270: 47e4 693d cfe3 76bb 6eb5 ecbd 0815 003c
00000280: 789d c1bd ce59 4d3d dec9 2e3e deee 47bd
00000290: 1255 8bbd 92a5 cb3b dbc6 1c3d fb39 303e
000002a0: 22d8 3bbd 3ab6 453d d523 e83d 56f5 f9bd
000002b0: e8f3 6fbd de9a 9dbc 603e bc3d 7cec 6a3e
000002c0: a627 fc3d 38ca cc3d a08c b13d 5033 813d
000002d0: ce4d 033e 4eb8 42bd 089b 253e 76f3 763d
000002e0: 2c7a 61ba 2b64 5d3c f7d7 863d 129b cb3c
000002f0: 979b b9bd b7f7 be3d d523 b83d 968c 3b3e
00000300: ea55 493d f483 d63d d291 30bc 9023 fe3c
00000310: e6ae 063e d31e c0bb 08b6 dabc 4f5a 1b3e
00000320: 55e8 0e3e a487 1a3d 2a47 60bc e40b e53d
00000330: 8f32 883a 162b 823e bc4e 9f3d bf17 db3d
00000340: d6e4 97bd b6c6 02bd 70f1 003e 1c03 883d
00000350: c8dc 9a3d 2109 2f3e f359 7ebd 56db fa3d
00000360: 6a2d f83b 2707 803d ddf3 1c3d 0729 ef3d
00000370: 1a7f 153e 128f 443d 4adc 9c3d 813a 913d
00000380: 411d beba dd35 023e c323 133e 761f 9cbc
00000390: 2058 1f3c f3dc 8b3d d58a 55bd 89f8 cc3c
000003a0: 1afc ecbb 4f95 833e 422c 263d ef78 b6bb
000003b0: d809 dd3d fbc8 383c 9ce2 893d 3bc4 d83d
000003c0: 1bcd b83c 7664 d13d d4c2 0f3e 4880 9d3d
000003d0: b7c7 843d 51cd 3b3e ea95 623e be10 593d
000003e0: dc13 b33c 4e3e 703d ef1b 1a3e b9c1 f73d
000003f0: 949c 9dbc 936b 173c b893 a53c 3894 293e

fc3.weight f4 [2, 256]
-0.4673122 -0.38116747 -0.5254149 -0.2335489 -0.36910117 0.37827134 0.2256669 0.24489106
0.4916704 -0.27583003 -0.51378834 -0.7980216 0.14592293 0.4994004 -0.4501561 0.0057385573
-0.21998599 0.1322798 -0.30766255 -0.47806022 -0.9963902 0.651536 -0.83264905 -0.36458585
0.4099883 -0.021752257 -0.27496982 0.5887421 0.2830836 -0.6117883 -0.317214 -0.2734288
0.3149719 -0.80771124 -0.89699054 0.24579293 -0.20660812 0.018512122 -0.8539405 -0.78794986
-0.08512688 -0.47914317 -0.41314715 -0.42589146 -0.21140099 -0.58637863 -0.10852646 -1.2728549
0.19326378 0.15561067 0.09086052 -0.9085111 0.23248065 0.010255554 -0.86930877 -0.34783155
0.37648436 -0.45266348 0.3049897 -0.104462504 0.0019276374 -0.105513245 0.41140163 0.2108992
-0.6151604 -0.52361166 -0.818009 -1.2294506 0.3907656 -0.21310082 0.35112932 -0.4705477
0.109503545 -0.22058211 -0.07159157 0.016687429 -0.3240997 0.5689641 0.61611456 -0.5254895
0.5647082 0.23453093 0.07767875 -1.038554 0.3279342 0.0854625 0.11292299 -0.20509276
0.18352894 -0.074882284 -0.8272698 0.19628114 0.6848026 -0.7045018 -0.039279625 0.522872
0.024486346 0.07459281 0.20721479 0.3613095 0.070156485 0.29197302 0.6253185 0.36237344
-0.8571219 -0.090101406 0.19499628 -0.2785855 -0.2254222 -0.48835605 -0.81596386 -0.53786117
-0.017943015 0.2754579 0.023351382 -0.060572367 -0.47958788 0.08453887 -0.50137585 -0.5408023
0.18053037 0.6304127 -0.63663435 -0.3541617 0.16313119 0.048637528 0.279494 -0.19153704
-0.4004433 -0.7076643 -0.49745834 0.14783493 -1.0879611 0.6879203 -0.863592 0.0026596992
0.6111647 0.4678354 0.42916954 0.36873373 0.05632791 -0.2343764 0.9337538 0.0044471966
-1.0121024 0.011757252 0.029740565 0.24836874 0.45580432 -0.4928103 -0.48750842 0.5997495
-1.1441768 0.34362158 -1.0870373 -0.1539458 -0.76736885 -0.56914586 0.300808 0.589641
0.56061035 0.5548042 -1.0568143 0.14489368 0.015674844 0.3297582 -0.72431535 -0.36759642
0.2671977 -0.23552689 0.26499048 -0.5605066 -0.040161554 0.10515447 -0.39878136 -0.9566345
-0.52154523 0.086391434 0.3865467 0.23950985 -0.11706942 -0.24407436 -0.17654508 0.4224651
0.38430825 0.059975635 0.60315216 -0.005543396 0.52362555 -0.4441876 0.5416543 -0.12062697
0.039331153 -1.1392785 -0.13243225 0.45482317 -0.3348259 -0.56105137 0.21594207 -0.8497663
-0.17770633 -0.40397412 0.29724237 -0.3806507 0.07088039 -0.17909572 -0.08694373 0.4147325
0.24400584 1.0321311 0.35274467 0.5402943 0.42316353 -0.18882513 -0.42989305 -0.61734945
0.1318252 -0.538959 0.35899052 -0.57050174 -0.94352484 0.4527257 -0.16048054 -0.39295435
-0.85794425 -0.33095106 -0.52105254 0.1110617 -0.4082387 0.5446182 0.4072468 0.11550284
0.36261126 -0.49081707 0.018703766 -0.79271644 0.3832947 -0.48333034 0.14609243 -0.013623845
0.1229188 0.31700262 -0.7267079 -0.024312992 -0.38216892 -0.5502596 0.38569847 -0.51635414
0.08081773 -0.9654964 0.4187837 -0.5335061 -0.20337793 -0.4063812 -0.5012933 -0.94199544
00000000: 8b43 efbe 6228 c3be 9781 06bf 7127 6fbe
00000010: d4fa bcbe c8ac c13e 3915 673e b9c4 7a3e
00000020: 39bc fb3e 9839 8dbe a287 03bf 254b 4cbf
00000030: d26c 153e 69b1 ff3e dc7a e6be 820a bc3b
00000040: 0244 61be 5b74 073e f285 9dbe 4fc4 f4be
00000050: 6e13 7fbf 10cb 263f 7d28 55bf ffaa babe
00000060: fde9 d13e ca31 b2bc d8c8 8cbe cdb7 163f
00000070: 55f0 903e 289e 1cbf e069 a2be dcfe 8bbe
00000080: ff43 a13e 2ac6 4ebf 2ca1 65bf 24b1 7b3e
00000090: 1491 53be bca6 973c d89b 5abf 15b7 49bf
000000a0: 0057 aebd 4152 f5be 0688 d3be 720e dabe
000000b0: 8079 58be e91c 16bf 1f43 debd e9ec a2bf
000000c0: f1e6 453e 6758 1f3e 1515 ba3d 2f94 68bf
000000d0: 680f 6e3e e906 283c 058b 5ebf fa16 b2be
000000e0: 8fc2 c03e 82c3 e7be 9c27 9c3e 70f0 d5bd
000000f0: c7a8 fc3a 5417 d8bd 3ca3 d23e f6f5 573e
00000100: 277b 1dbf 6a0b 06bf 0a69 51bf a35e 9dbf
00000110: 6e12 c83e 1a37 5abe 39c7 b33e a1eb f0be
00000120: 6543 e03d 47e0 61be 9a9e 92bd 13b4 883c
00000130: 65f0 a5be a2a7 113f afb9 1d3f 7b86 06bf
00000140: b790 103f e028 703e 0916 9f3d 56ef 84bf
00000150: fee6 a73e f706 af3d 2b44 e73d d603 52be
00000160: 03ef 3b3e e25b 99bd f4c7 53bf ecfd 483e
00000170: 394f 2f3f 3b5a 34bf ace3 20bd f0da 053f
00000180: 9797 c83c 1dc4 983d 1d30 543e 8ffd b83e
00000190: 34ae 8f3d 7d7d 953e e014 203f 0389 b93e
000001a0: 576c 5bbf 1687 b8bd 1bad 473e c2a2 8ebe
000001b0: 14d5 66be ce09 fabe 02e3 50bf 45b1 09bf
000001c0: 3bfd 92bc d108 8d3e 664b bf3c bb1a 78bd
000001d0: 8b8c f5be b722 ad3d 2b5a 00bf 0572 0abf
000001e0: f4dc 383e ba62 213f 78fa 22bf af54 b5be
000001f0: dd0b 273e 2538 473d d619 8f3e 4922 44be
00000200: e706 cdbe 7d29 35bf dcb2 febe 0a62 173e
00000210: 4f42 8bbf 8b1b 303f 5e14 5dbf 594e 2e3b
00000220: 4a75 1c3f 1f88 ef3e 1cbc db3e abca bc3e
00000230: 18b8 663d 5e00 70be 7d0a 6f3f cab9 913b
00000240: 928c 81bf 7da1 403c 7ca2 f33c 6054 7e3e
00000250: 2f5f e93e a251 fcbe b49a f9be 2f89 193f
00000260: 6374 92bf 2bef af3e 0a24 8bbf f8a3 1dbe
00000270: 4972 44bf 8bb3 11bf 8203 9a3e b6f2 163f
00000280: 2984 0f3f a607 0e3f b145 87bf 025f 143e
00000290: 8868 803c 11d6 a83e bb6c 39bf 9935 bcbe
000002a0: 23ce 883e f62d 71be d5ac 873e 5c7d 0fbf
000002b0: 7180 24bd 3a5b d73d 122d ccbe 00e6 74bf
000002c0: fd83 05bf feed b03d 73e9 c53e 1242 753e
000002d0: 18c2 efbd a1ee 79be 3cc8 34be 584d d83e
000002e0: 0dc4 c43e 03a9 753d 2e68 1a3f 60a5 b5bb
000002f0: 530c 063f 8f6c e3be dba9 0a3f 460b f7bd
00000300: b419 213d e1d3 91bf 529c 07be 95de e83e
00000310: 4d6e abbe 10a1 0fbf eb1f 5d3e 498a 59bf
00000320: a6f8 35be b2d5 cebe 2730 983e a6e4 c2be
00000330: bd29 913d de64 37be 8e0f b2bd d157 d43e
00000340: abdc 793e df1c 843f f39a b43e ba50 0a3f
00000350: e4a8 d83e 605b 41be f11a dcbe 9d0a 1ebf
00000360: 2ffd 063e 38f9 09bf 9bcd b73e 670c 12bf
00000370: d88a 71bf aacb e73e 0355 24be 5031 c9be
00000380: 3ca2 5bbf 6b72 a9be b363 05bf 5174 e33d
00000390: aa04 d1be 196c 0b3f a782 d03e c18c ec3d
000003a0: 2fa8 b93e 604c fbbe a438 993c 77ef 4abf
000003b0: 343f c43e 1377 f7be 4199 153e 8c36 5fbc
000003c0: dabc fb3d 2b4e a23e 8709 3abf 0a2c c7bc
000003d0: a5ab c3be d0dd 0cbf 457a c53e c92f 04bf
000003e0: c483 a53d c62a 77bf d16a d63e db93 08bf
000003f0: 4e42 50be 3211 d0be c254 00bf 9d26 71bf

fc3.bias f4 [2]
-0.02563334 -0.10288682
00000000: 03fd d1bc 53b6 d2bd

bn1.weight f4 [256]
1.1281517 1.2837155 1.1341064 1.3371929 1.1620969 1.1935931 1.2067653 1.1784546
1.0967616 1.3214748 1.03834 1.1309876 1.1151136 1.4898046 1.2541881 1.297692
1.1654607 1.2811238 1.1441593 1.12258 1.2815815 1.3814225 1.0508802 0.98581916
1.1758603 1.2166362 1.2877662 1.5903082 1.0653121 1.5562152 1.2076405 1.2362857
1.1775076 1.2020949 1.1530124 1.195749 1.4279575 1.1811156 1.3463124 1.1850145
1.1886743 1.0152092 1.053009 1.0634627 0.7782298 1.1438596 1.1855193 1.1641364
1.1622771 1.6946764 1.2149012 1.0271025 1.2089707 1.112425 1.1676162 1.1700641
1.1748135 1.1789464 1.0815792 0.9850053 0.9489252 1.0408689 1.1429538 1.2932435
1.7438805 1.3258548 1.2053044 1.1516892 1.1432825 1.322851 1.2747782 1.2461344
1.2275977 1.2203424 1.12128 1.1385156 1.2691396 1.1131749 1.070537 1.085486
1.0839928 1.3093305 1.1663485 1.2831948 1.3685235 1.4423995 1.2604477 1.0797901
1.2289597 1.2439365 1.1807112 1.2453573 1.1700943 1.1368964 1.2448521 1.0410228
1.2068613 1.2016013 1.2051834 1.2058256 1.1011096 1.7551394 1.1648043 1.3268279
1.1784581 1.2008238 1.1971817 1.3710593 1.2340977 1.2278243 0.8694741 1.2775592
1.1149728 1.1417841 0.89848316 1.5193202 1.2204113 1.2240448 1.2069114 1.1997796
1.0180643 1.3204055 1.0401689 1.1511921 1.3306774 1.2546369 1.4229414 1.2956921
1.4689444 0.97315645 1.1059164 1.1998562 1.140854 1.2882158 1.3055762 1.3283603
1.2945273 1.2535497 1.2981898 1.3184392 1.284016 1.2349974 1.5327612 1.2632643
1.1588181 1.2328037 1.1429646 1.1265305 1.2031456 1.2614357 1.1259974 1.3222455
0.9817718 1.1568971 1.331436 1.1200949 1.3596095 1.30866 1.163299 1.1538653
1.2109656 1.0959588 1.07747 1.2923933 1.2875962 1.2350436 1.1767493 1.1933442
1.232992 1.140965 1.2982271 1.0687418 1.181589 1.1595676 1.3259332 1.2168595
1.2735789 1.538005 1.0906683 1.1802906 1.1331221 1.2391381 1.1716359 1.0928692
1.809487 1.2476432 1.410131 1.1609616 1.6599668 1.3139864 1.1522353 1.1861863
1.3137221 1.2357314 1.2069553 1.3674865 1.1180212 1.167243 1.2671434 1.0880352
1.3438741 1.256155 1.0865666 1.1687756 1.246719 1.225042 1.1302449 1.1932809
1.3837764 1.38065 1.0966364 1.163137 1.2729014 1.6314869 1.1681029 1.7551194
1.3326346 1.3092138 1.2014214 1.1813691 1.0922595 0.9370348 1.1483413 1.1897082
1.1510761 1.3188851 1.3108641 1.2131267 1.4620427 1.2356182 1.2320676 1.12979
1.2540655 1.4042451 0.9577089 1.3291143 1.3004998 1.0980456 1.2029032 1.3567196
1.1060033 1.2927046 1.3236979 1.2549814 1.3568435 1.3352184 1.0643167 1.2309021
1.1164007 1.1787045 1.129122 1.1788651 1.1947579 1.546982 1.3699288 1.2302011
00000000: 4667 903f ca50 a43f 662a 913f 2329 ab3f
00000010: 97bf 943f a9c7 983f 4977 9a3f 9ad7 963f
00000020: af62 8c3f 1626 a93f 53e8 843f 34c4 903f
00000030: 0bbc 8e3f ebb1 be3f 3c89 a03f c51a a63f
00000040: d12d 953f ddfb a33f d073 923f b4b0 8f3f
00000050: dd0a a43f 74d2 b03f 3e83 863f a55e 7c3f
00000060: 9782 963f bcba 9b3f 86d5 a43f 388f cb3f
00000070: 265c 883f 0f32 c73f f793 9a3f 9c3e 9e3f
00000080: 92b8 963f 3fde 993f e995 933f 4e0e 993f
00000090: 50c7 b63f cc2e 973f f753 ac3f 8eae 973f
000000a0: 7b26 983f 60f2 813f 00c9 863f 8c1f 883f
000000b0: 113a 473f fe69 923f 19bf 973f 6c02 953f
000000c0: 7fc5 943f 28eb d83f e281 9b3f 1878 833f
000000d0: 8dbf 9a3f f163 8e3f 7374 953f a9c4 953f
000000e0: 4a60 963f b7e7 963f 3071 8a3f 4f29 7c3f
000000f0: c3ec 723f 313b 853f 4f4c 923f 0189 a53f
00000100: 7a37 df3f 9cb5 a93f 6a47 9a3f 8d6a 933f
00000110: 1557 923f 2e53 a93f ef2b a33f 5581 9f3f
00000120: ec21 9d3f 2e34 9c3f 1a86 8f3f e1ba 913f
00000130: 2b73 a23f 847c 8e3f 5b07 893f 35f1 8a3f
00000140: 47c0 8a3f 2498 a73f e84a 953f ba3f a43f
00000150: c72b af3f 8ca0 b83f 5a56 a13f 9036 8a3f
00000160: 8d4e 9d3f 5039 9f3f 8b21 973f de67 9f3f
00000170: a6c5 953f d285 913f 5057 9f3f 3c40 853f
00000180: 6e7a 9a3f 12ce 993f 7343 9a3f 7e58 9a3f
00000190: 29f1 8c3f 68a8 e03f 4f18 953f 7fd5 a93f
000001a0: b7d7 963f 98b4 993f 403d 993f df7e af3f
000001b0: eaf6 9d3f 5929 9d3f db95 5e3f 0f87 a33f
000001c0: 6eb7 8e3f fb25 923f fe02 663f 1679 c23f
000001d0: 7036 9c3f 80ad 9c3f 137c 9a3f 6192 993f
000001e0: ee4f 823f 0c03 a93f 4124 853f 435a 933f
000001f0: a353 aa3f f197 a03f f222 b63f 3dd9 a53f
00000200: 5f06 bc3f c820 793f ab8e 8d3f e394 993f
00000210: 8107 923f 41e4 a43f 1f1d a73f b607 aa3f
00000220: 12b3 a53f 5174 a03f 152b a63f 9ec2 a83f
00000230: a35a a43f 6514 9e3f 8531 c43f a5b2 a13f
00000240: 2754 943f 83cc 9d3f aa4c 923f 2732 903f
00000250: ad00 9a3f ba76 a13f af20 903f 573f a93f
00000260: 6655 7b3f 3415 943f 7f6c aa3f 455f 8f3f
00000270: af07 ae3f 2c82 a73f fbe6 943f dcb1 933f
00000280: ec00 9b3f 6148 8c3f 89ea 893f 256d a53f
00000290: f4cf a43f e915 9e3f b99f 963f 81bf 983f
000002a0: afd2 9d3f 240b 923f 4e2c a63f 88cc 883f
000002b0: 4f3e 973f b66c 943f 2eb8 a93f 0dc2 9b3f
000002c0: a204 a33f 59dd c43f 059b 8b3f c313 973f
000002d0: 250a 913f 149c 9e3f 2af8 953f 23e3 8b3f
000002e0: 459d e73f c6b2 9f3f 2c7f b43f 649a 943f
000002f0: cb79 d43f b530 a83f 727c 933f f4d4 973f
00000300: 0c28 a83f 722c 9e3f 837d 9a3f cc09 af3f
00000310: 521b 8f3f 3868 953f c131 a23f bd44 8b3f
00000320: 1104 ac3f b0c9 a03f 9d14 8b3f 709a 953f
00000330: 7d94 9f3f 2dce 9c3f ddab 903f 6ebd 983f
00000340: 961f b13f 24b9 b03f 955e 8c3f ace1 943f
00000350: 6fee a23f 90d4 d03f 6584 953f c1a7 e03f
00000360: c593 aa3f 5194 a73f 2dc8 993f 1a37 973f
00000370: 29cf 8b3f 83e1 6f3f d9fc 923f 5c48 983f
00000380: 7656 933f 3ad1 a83f 65ca a73f bc47 9b3f
00000390: 3724 bb3f bd28 9e3f 64b4 9d3f f59c 903f
000003a0: 3885 a03f 4ebe b33f 692c 753f 6b20 aa3f
000003b0: c776 a63f c28c 8c3f bbf8 993f fda8 ad3f
000003c0: 8491 8d3f 5877 a53f ef6e a93f 3ba3 a03f
000003d0: 0cad ad3f 70e8 aa3f 883b 883f 338e 9d3f
000003e0: 38e6 8e3f cadf 963f 1287 903f 0de5 963f
000003f0: d4ed 983f 8203 c63f d459 af3f 3b77 9d3f

bn1.bias f4 [256]
-0.14401853 0.05666272 -0.06769875 -0.17611758 0.1618952 -0.22168353 -0.10525332 -0.17469159
-0.18652117 -0.042173423 0.062193748 -0.26980558 -0.14146172 -0.19729123 -0.15777303 -0.21947682
0.097818956 -0.10092133 -0.2587159 -0.26641557 -0.14372386 -0.03751667 -0.2636618 -0.3235942
0.020493997 -0.19041145 -0.21709011 0.093733534 -0.009039159 -0.04215903 -0.28497475 0.0013305588
-0.026197596 -0.38716266 -0.32155862 -0.051606603 -0.051991295 -0.26255006 -0.21026807 -0.17628565
-0.08564479 -0.15330751 0.22909592 -0.11753317 0.083481744 -0.2816891 -0.102811016 -0.15900008
-0.31152108 0.15628119 -0.24297467 -0.14411156 -0.10726303 -0.14934947 -0.35129115 0.13432454
0.06992542 -0.13948964 -0.14924845 -0.16525894 -0.22055738 -0.42156464 0.14134291 -0.22831902
-0.07169337 -0.039618608 -0.1526797 -0.28202054 -0.21359372 -0.23033106 -0.15416811 -0.21744464
0.04876681 -0.101084955 -0.2291849 0.1595274 0.28986225 -0.07816107 -0.22986129 -0.30742413
-0.09038203 0.18883899 -0.034894604 0.06093181 0.09363505 -0.017655741 -0.3558258 -0.263858
-0.14762291 -0.087229334 0.0017106464 -0.04110214 -0.16134326 -0.23756899 -0.21819386 -0.10998941
-0.13132921 -0.102561556 -0.10673546 -0.16067865 -0.12354733 0.12386387 0.0054170876 0.235804
-0.30007064 0.03831466 -0.24340187 0.01999715 -0.1656242 -0.07504597 -0.21062529 0.0129454
-0.0012018627 -0.16474429 -0.15727265 -0.19847272 -0.114687465 -0.020376777 -0.07139281 -0.09303556
-0.16241692 0.02001847 -0.06402036 -0.18323413 0.0201894 -0.15792656 -0.10940413 -0.20436072
0.10975628 -0.06260434 -0.060413606 -0.5106353 -0.10429455 -0.3008873 -0.091025434 0.13771105
-0.13589633 -0.22810155 -0.006335349 0.012119176 0.022916451 -0.33119637 0.096802406 -0.09907689
-0.18878236 -0.29874468 -0.03180627 -0.11527835 -0.081632905 0.011019103 -0.095047735 -0.21053563
-0.17674717 -0.22911802 0.020714227 -0.48659804 -0.034374576 -0.0503779 -0.12257683 -0.059083454
0.0609635 -0.013373586 -0.35964465 0.030492324 -0.17282276 -0.27986297 0.009067736 -0.06169021
0.030903956 -0.049110867 -0.3413088 -0.11760764 0.029027706 -0.0343559 -0.105264276 -0.13706195
0.09719754 0.02396022 -0.21728589 -0.29753274 -0.35122594 -0.056035742 -0.33804974 -0.1101838
0.28194952 -0.15975344 -0.0035642162 -0.16086653 -0.08220763 -0.03019663 -0.34486657 -0.278802
-0.094775364 -0.19191793 0.07023709 -0.32991517 -0.15837467 0.007127746 -0.15373226 -0.34639633
0.0231645 -0.20035869 -0.23412499 -0.21829447 -0.10739063 -0.06601658 -0.19060066 -0.21933992
-0.05708839 0.13886595 -0.2559968 0.032468997 0.13347772 0.028989654 -0.16613041 0.10650964
-0.21519162 -0.20725237 -0.1816673 -0.018315936 0.052934445 -0.060525708 -0.14518476 -0.08125088
-0.17374967 -0.11325875 -0.2684575 -0.08925019 0.03308036 -0.09380622 -0.04321333 -0.036021113
-0.010559171 -0.0077312174 -0.03380746 -0.10986413 -0.039422054 -0.21361239 -0.2745738 -0.23463203
-0.19219275 0.05219922 -0.044077974 -0.18114015 -0.07008954 -0.00101941 -0.070565686 -0.2960127
-0.17456394 -0.20316204 -0.36691165 -0.0872573 -0.12634982 -0.06768242 -0.044040114 -0.15682423
00000000: 9879 13be 2b17 683d a4a5 8abd 2b58 34be
00000010: dbc7 253e 0201 63be 0d8f d7bd 5ae2 32be
00000020: 68ff 3ebe 0abe 2cbd dfbe 7e3d f523 8abe
00000030: 57db 10be b606 4abe 418f 21be 88be 60be
00000040: 4e55 c83d d8af cebd 6976 84be 9f67 88be
00000050: 592c 13be 14ab 19bd aefe 86be 24ae a5be
00000060: 07e3 a73c 38fb 42be df4c 5ebe 5ef7 bf3d
00000070: fb18 14bc f2ae 2cbd 36e8 91be 2566 ae3a
00000080: 579c d6bc 2f3a c6be 55a3 a4be 7261 53bd
00000090: d3f4 54bd f66c 86be 8350 57be 3a84 34be
000000a0: 8966 afbd a5fc 1cbe 1f98 6a3e 3bb5 f0bd
000000b0: 7af8 aa3d 8e39 90be 958e d2bd ebd0 22be
000000c0: b17f 9fbe 2d08 203e 5ace 78be fb91 13be
000000d0: b8ac dbbd 11ef 18be 6fdc b3be 5f8c 093e
000000e0: 0f35 8f3d 5fd6 0ebe 96d4 18be a439 29be
000000f0: cbd9 61be 52d7 d7be 32bc 103e 76cc 69be
00000100: f9d3 92bd 1f47 22bd 1158 1cbe ff64 90be
00000110: 50b8 5abe e8db 6bbe 3fde 1dbe cfa9 5ebe
00000120: b5bf 473d a105 cfbd 72af 6abe 275b 233e
00000130: d368 943e e912 a0bd c260 6bbe b266 9dbe
00000140: 371a b9bd 025f 413e a5ed 0ebd a293 793d
00000150: bcc3 bf3d c6a2 90bc cd2e b6be 6518 87be
00000160: 762a 17be 4ba5 b2bd c537 e03a b85a 28bd
00000170: 2b37 25be 4945 73be 366e 5fbe 2142 e1bd
00000180: 2a7b 06be cb0b d2bd 1f98 dabd f288 24be
00000190: 6206 fdbd 57ac fd3d d381 b13b 9b76 713e
000001a0: dca2 99be d5ef 1c3d 573e 79be 10d1 a33c
000001b0: 6499 29be b4b1 99bd 28ae 57be f118 543c
000001c0: d287 9dba bab2 28be 150c 21be 6f3c 4bbe
000001d0: 43e1 eabd 33ed a6bc 6536 92bd 6d89 bebd
000001e0: 9f50 26be c6fd a33c 1b1d 83bd baa1 3bbe
000001f0: 3e64 a53c 80b7 21be 460f e0bd f043 51be
00000200: e7c7 e03d b436 80bd 4274 77bd ffb8 02bf
00000210: 6298 d5bd e60d 9abe 8b6b babd 2004 0d3e
00000220: 6828 0bbe 7493 69be c298 cfbb 828f 463c
00000230: 48bb bb3c 9292 a9be 5740 c63d d3e8 cabd
00000240: 2a50 41be 10f5 98be 4b47 02bd 0e17 ecbd
00000250: 272f a7bd 7889 343c 63a8 c2bd a796 57be
00000260: 36fd 34be ea9d 6abe e2b0 a93c 6123 f9be
00000270: 5bcc 0cbd 0f59 4ebd 9009 fbbd 7e01 72bd
00000280: ddb4 793d e31c 5bbc 5823 b8be 0acb f93c
00000290: 73f8 30be 334a 8fbe d790 143c e0ae 7cbd
000002a0: 4b2a fd3c 7a28 49bd 07c0 aebe 46dc f0bd
000002b0: 83cb ed3c c6b8 0cbd cc94 d7bd f859 0cbe
000002c0: 810f c73d 3948 c43c 3180 5ebe 3656 98be
000002d0: e3d3 b3be bc85 65bd db14 adbe 0ba8 e1bd
000002e0: b05b 903e 6896 23be a095 69bb 32ba 24be
000002f0: 795c a8bd ec5e f7bc 5a92 b0be 23bf 8ebe
00000300: 9619 c2bd 2286 44be 77d8 8f3d a4ea a8be
00000310: f82c 22be de8f e93b fd6b 1dbe dc5a b1be
00000320: 7ac3 bd3c d42a 4dbe 76be 6fbe 9688 5fbe
00000330: 9eef dbbd b333 87bd d22c 43be a59a 60be
00000340: 84d5 69bd e032 0e3e 0312 83be 36fe 043d
00000350: 62ae 083e b67b ed3c 171e 2abe ba21 da3d
00000360: 315b 5cbe f739 54be fe06 3abe 4d0b 96bc
00000370: cad1 583d cee9 77bd 50ab 14be dd66 a6bd
00000380: 6feb 31be 34f4 e7bd 4373 89be cec8 b6bd
00000390: 467f 073d 7a1d c0bd 7600 31bd e08a 13bd
000003a0: 6000 2dbc 2756 fdbb b179 0abd 7200 e1bd
000003b0: 0579 21bd 35bd 5abe f094 8cbe 6143 70be
000003c0: 2dce 44be d9ce 553d 1b8b 34bd ce7c 39be
000003d0: 1b8b 8fbd b99d 85ba be84 90bd fa8e 97be
000003e0: e4c0 32be b609 50be d8db bbbe f5b3 b2bd
000003f0: d961 01be 159d 8abd 6863 34bd 8896 20be

bn1.running_mean f4 [256]
7.0354867 5.0451565 -0.14808977 -4.916933 8.198349 -0.76051193 -0.74423414 -9.529003
2.0571392 -7.616909 2.0024946 -3.3954897 -2.6535444 -5.254651 7.0873833 -4.0556135
1.8123434 -0.33296692 2.8385942 -1.6743063 -3.116631 -8.252801 -3.185844 -1.1766326
6.7232456 4.7345214 5.7499843 5.515831 0.6738464 4.177932 -4.0337677 4.729265
10.287023 -0.26193768 -5.307972 5.048336 2.0195103 -3.012234 2.2228746 -4.777143
4.5564556 -2.02087 7.2383523 1.4370754 9.135918 2.0435157 -3.9611871 -4.208154
-3.2758217 6.0096173 -0.32675904 -2.6153593 5.9629784 -2.4769552 0.41741788 6.862726
3.887091 -7.66939 -3.5874474 7.916778 4.759745 -4.0175815 -6.8396306 1.4535038
-4.042173 4.5171843 -5.6757245 -0.05418374 -10.187743 7.692323 8.612208 -5.264358
-2.6138294 4.9236803 1.1576138 3.6260843 10.543686 4.664743 -1.1688585 1.1492807
5.842425 12.355539 -6.1189246 -0.9258983 5.9751086 6.866466 -8.068451 -3.1836712
-2.9606142 0.93142605 -0.3213382 5.4924746 0.060037516 -0.5086048 -4.0796266 10.089789
-5.7202134 -0.7344593 -6.3541274 -2.7536545 0.2907858 1.3974108 -0.28939927 7.7396116
-0.8893266 0.37279832 -3.0734005 -1.405931 5.7148786 7.9729257 -8.83514 -5.4155188
6.633456 -3.9099412 1.7854438 -8.403266 -0.01636792 4.0138464 5.9809885 -4.008315
3.4407215 4.970361 3.4716048 2.9911852 2.7997077 3.59261 -2.3060036 -1.9696894
7.4446807 8.759052 5.405536 -6.4595394 2.6882873 -0.9609194 -7.786126 -0.96335995
0.44844234 -4.269646 0.82934237 -2.8707879 -1.19765 5.1033273 6.47028 1.7079821
-6.001541 -0.3706223 -3.508602 4.611262 -2.5814676 7.1288185 2.0686734 -0.6576989
-0.671117 -1.9493948 5.0046835 -4.5079484 2.235924 0.48109287 5.4773407 -10.07645
0.078272685 8.340146 1.6040605 0.9375726 -3.5384037 3.648659 2.2935915 -3.2494917
1.1359969 3.945808 -1.8625747 2.3410666 6.5692816 -1.9781749 -0.45015833 -3.0085266
-1.5977644 -8.26538 2.094053 -4.007289 2.7232382 3.932805 -6.769247 5.323641
-0.4146236 -4.1456 5.0512924 -0.16816299 -2.2623503 2.9860997 -6.5838013 -13.993129
-8.916939 -2.238978 3.5669975 -3.4878137 -6.114724 -1.3345516 -7.620055 -3.9512115
-3.8505664 -0.9351452 4.529257 1.854214 -2.9311073 -1.300689 1.477055 -3.0273635
4.3912053 1.9792975 -7.5360184 -2.940624 5.189106 2.3482318 -4.578875 -0.32351705
-10.961733 -5.144838 3.0796921 2.6447928 10.669668 3.121775 -1.6467667 5.3419914
-0.7769863 5.5006075 -0.9690537 1.787026 4.3833523 -0.059200708 -7.422642 2.7666519
2.5759003 1.8026121 2.6834497 6.703864 -0.5960463 -9.394779 -4.282791 -4.9131207
4.838001 4.93934 -1.5893675 9.006272 3.2782736 -0.04807925 -6.7827463 3.8374045
7.8409605 4.131629 -1.863393 0.6786012 -1.9736236 5.187011 -2.0902507 -4.7431006
00000000: b522 e140 ec71 a140 d8a4 17be 8457 9dc0
00000010: 702c 0341 e9b0 42bf 2186 3ebf cc76 18c1
00000020: 2ba8 0340 b8bd f3c0 df28 0040 b44f 59c0
00000030: acd3 29c0 1a26 a8c0 d8cb e240 96c7 81c0
00000040: defa e73f a47a aabe 87ab 3540 ab4f d6bf
00000050: e276 47c0 790b 04c1 dee4 4bc0 e69b 96bf
00000060: d424 d740 3381 9740 dfff b740 b081 b040
00000070: 3381 2c3f 9eb1 8540 a014 81c0 2456 9740
00000080: a597 2441 b21c 86be e8da a9c0 f88b a140
00000090: a83f 0140 71c8 40c0 9443 0e40 5bde 98c0
000000a0: 7cce 9140 ef55 01c0 95a0 e740 16f2 b73f
000000b0: b82c 1241 f6c8 0240 1784 7dc0 33a9 86c0
000000c0: 10a7 51c0 c94e c040 f64c a7be 0c62 27c0
000000d0: b8d0 be40 6f86 1ec0 ccb7 d53e 749b db40
000000e0: 19c6 7840 a56b f5c0 bd98 65c0 3f56 fd40
000000f0: d54f 9840 0790 80c0 41de dac0 6a0c ba3f
00000100: 7b59 81c0 c68c 9040 899f b5c0 c5ef 5dbd
00000110: ff00 23c1 8327 f640 9bcb 0941 9f75 a8c0
00000120: fb48 27c0 ca8e 9d40 b02c 943f c411 6840
00000130: f0b2 2841 9345 9540 289d 95bf a11b 933f
00000140: 25f5 ba40 4ab0 4541 3bce c3c0 ac07 6dbf
00000150: 1734 bf40 17ba db40 6018 01c1 45c1 4bc0
00000160: b47a 3dc0 f071 6e3f 7186 a4be 5ac2 af40
00000170: e6e9 753d ed33 02bf 4d8c 82c0 c76f 2141
00000180: fd0b b7c0 8605 3cbf 0355 cbc0 e03b 30c0
00000190: e0e1 943e 5bde b23f 242c 94be e6aa f740
000001a0: e8aa 63bf 6cdf be3e 98b2 44c0 8cf5 b3bf
000001b0: 49e0 b640 3522 ff40 bc5c 0dc1 ee4b adc0
000001c0: 4645 d440 7a3c 7ac0 6c89 e43f c773 06c1
000001d0: 0416 86bc 6e71 8040 4264 bf40 1e44 80c0
000001e0: c834 5c40 330d 9f40 c62e 5e40 946f 3f40
000001f0: 692e 3340 52ed 6540 9095 13c0 c81e fcbf
00000200: d33a ee40 1425 0c41 27fa ac40 8cb4 cec0
00000210: e60c 2c40 d0fe 75bf f227 f9c0 c29e 76bf
00000220: 3c9a e53e f1a0 88c0 c84f 543f fdba 37c0
00000230: 984c 99bf 754e a340 890c cf40 289f da3f
00000240: a00c c0c0 35c2 bdbe ef8c 60c0 758f 9340
00000250: c436 25c0 481f e440 2565 0440 f55e 28bf
00000260: 53ce 2bbf c585 f9bf 5e26 a040 1d41 90c0
00000270: 6119 0f40 ce51 f63e 6046 af40 2439 21c1
00000280: 6e4d a03d 3d71 0541 db51 cd3f c204 703f
00000290: 3575 62c0 a183 6940 34ca 1240 acf7 4fc0
000002a0: 5968 913f 1e88 7c40 d968 eebf 09d4 1540
000002b0: 8e37 d240 d634 fdbf 277b e6be b38b 40c0
000002c0: 8b83 ccbf ff3e 04c1 f704 0640 b63b 80c0
000002d0: 8949 2e40 14b3 7b40 ac9d d8c0 445b aa40
000002e0: 8b49 d4be c1a8 84c0 30a4 a140 eb32 2cbe
000002f0: 59ca 10c0 421c 3f40 80ae d2c0 dbe3 5fc1
00000300: c8ab 0ec1 6a4b 0fc0 b049 6440 5738 5fc0
00000310: d2ab c3c0 96d2 aabf 7ed7 f3c0 a6e0 7cc0
00000320: ae6f 76c0 ad65 6fbf acef 9040 e256 ed3f
00000330: 4397 3bc0 fa7c a6bf 2310 bd3f 53c0 41c0
00000340: c184 8c40 9f59 fd3f 1027 f1c0 2f33 3cc0
00000350: 280d a640 6e49 1640 2586 92c0 07a4 a5be
00000360: 4263 2fc1 83a2 a4c0 ad19 4540 4944 2940
00000370: f6b6 2a41 29cb 4740 40c9 d2bf 98f1 aa40
00000380: 93e8 46bf fa04 b040 e713 78bf 45bd e43f
00000390: 6c44 8c40 717c 72bd 4986 edc0 d310 3140
000003a0: 8ddb 2440 febb e63f a4bd 2b40 0e86 d640
000003b0: 7e96 18bf 0451 16c1 a00c 89c0 4938 9dc0
000003c0: e7d0 9a40 130f 9e40 6570 cbbf b119 1041
000003d0: 3ccf 5140 bfee 44bd 420c d9c0 0998 7540
000003e0: 26e9 fa40 4e36 8440 a983 eebf cfb8 2d3f
000003f0: b39f fcbf fefb a540 abc6 05c0 7bc7 97c0
